Codes/ML_model/Bandtype_Cgcnn/checkpoint.pth.tar (torch, 675095 bytes, 58 tensors)

embedding.weight f4 [64, 92]
0	0x3d57556b	0.052571695
1	0x3da61788	0.08109957
2	0xbd9735a6	-0.073832795
3	0x3cf74c4e	0.030187752
4	0x3d58a6f3	0.05289359
5	0xbb090e7d	-0.0020913177
6	0xbd90c702	-0.07069208
7	0xbd47d4ed	-0.048787046
8	0xbb905100	-0.004404187
9	0x3c0359e5	0.008017038
10	0xbd66ed60	-0.056378722
11	0x3c82726d	0.015923703
12	0x3ced2b92	0.02895144
13	0xbcee188f	-0.029064445
14	0x3d9a9963	0.075487874
15	0x3d984619	0.07435245
16	0x3dc2de3c	0.09515044
17	0xbc6c6aa2	-0.01442972
18	0xbc85aae7	-0.016316844
19	0xbd1af81d	-0.037834276
20	0xbd315c78	-0.043301076
21	0xbcf101b3	-0.029419756
22	0x3addfe29	0.0016936708
23	0xbdb9503d	-0.09048507
24	0x3da3e102	0.08001901
25	0xbd7aeb54	-0.061259583
26	0x3bb564c4	0.005535694
27	0xbcfb64b9	-0.030687677
28	0xbd801345	-0.06253675
29	0xbd6ce2b3	-0.057833385
30	0xbd8e00a5	-0.06933717
31	0xbd78e355	-0.060763676
32	0xbdd20975	-0.1025571
33	0xbc42928d	-0.011875761
34	0xbd49c447	-0.04925945
35	0xbcd3889e	-0.02582198
36	0x3d0c14a5	0.034199376
37	0x3da50342	0.08057262
38	0xbdd1fd68	-0.102534115
39	0xbd8fc36c	-0.07019696
40	0x3c217795	0.009855171
41	0x3be5163e	0.006991177
42	0x3ded66bc	0.11591861
43	0x3d5c737b	0.05382107
44	0xbd1aeeaa	-0.037825264
45	0x3cd35ff0	0.025802583
46	0xbb9bacae	-0.0047508096
47	0xbd7e1dc2	-0.062040098
48	0x3ca6053c	0.020266168
49	0xbcfc243c	-0.030778997
50	0x3d416dfd	0.047224034
51	0xbd88c18e	-0.066775426
52	0xbd0d3172	-0.034470983
53	0xbd667941	-0.05626798
54	0x3c444774	0.011979926
55	0x3d40f388	0.04710725
56	0xbd918574	-0.07105532
57	0x3e029408	0.12751782
58	0xbdaa2989	-0.083087035
59	0x3d62045b	0.055179935
60	0x3d27cc69	0.040966425
61	0x3baec50f	0.00533355
62	0xbdb0edb1	-0.08639086
63	0xbd3505a7	-0.044194844
64	0x3cbb078a	0.022830743
65	0x3d403457	0.046924915
66	0xbb31e5e0	-0.0027145073
67	0x3d47894a	0.048714913
68	0xbcfcd51c	-0.030863337
69	0x3ba2aa70	0.0049641654
70	0xbd1aeacc	-0.037821576
71	0xbd154764	-0.036445037
72	0xbdd9149d	-0.10599635
73	0xbe029084	-0.12750441
74	0xbe0f3f92	-0.13989094
75	0xbd12b0c2	-0.0358131
76	0xbcf39700	-0.029735088
77	0x3cd17e2a	0.025572855
78	0x3dbde912	0.0927297
79	0xbd1f31a7	-0.03886571
80	0xbdc148ca	-0.094377115
81	0xbcb70b7e	-0.022344347
82	0x3d638361	0.055545215
83	0xbddad51f	-0.10685181
84	0x3d25e3ef	0.040500578
85	0x3d9b62b9	0.07587189
86	0x3c7c6afe	0.015406368
87	0x3ca45657	0.020060701
88	0xbd4f43ea	-0.050601877
89	0x3d821e99	0.06353492
90	0x3d021c06	0.031765006
91	0x3d350e4b	0.044203084
92	0xbdc50d54	-0.09621683
93	0x3d5d3f4a	0.054015435
94	0x3d3f69d6	0.046731792
95	0xbdd44223	-0.10364177
96	0x3dcfd137	0.101473264
97	0x3dd56fb5	0.10421697
98	0x3d9908eb	0.07472404
99	0xbd70b3e7	-0.05876532
100	0x3db8380f	0.08995067
101	0xbd0dbd5a	-0.034604408
102	0xbd3678cf	-0.044548806
103	0x3dc11445	0.09427694
104	0xbd36c8fb	-0.044625264
105	0x3d1a8a96	0.037729822
106	0x3db62b11	0.08894933
107	0x3d175bb0	0.036952674
108	0x3b8dfa4b	0.0043328158
109	0x3d88f8d8	0.06688088
110	0x3dbf90aa	0.09353764
111	0x3c11e83d	0.008905468
112	0x3d40d55f	0.047078487
113	0xbd8c1bba	-0.06841226
114	0xbd62f686	-0.055410884
115	0x3d005fae	0.031341247
116	0xbd6399f7	-0.055566754
117	0xbd5d2f41	-0.054000143
118	0xbd0826c6	-0.033240102
119	0xbd575330	-0.05256957
120	0xbdc8e074	-0.09808436
121	0xbd197edd	-0.037474502
122	0xbcd95f51	-0.026534708
123	0x3b4392eb	0.0029842209
124	0x3d925ed6	0.07146995
125	0x3cbec8ba	0.023289073
126	0x3d7bea9e	0.061503045
127	0x3d1fc92c	0.03901021
128	0x3d225f51	0.039641682
129	0x3d69892e	0.05701559
130	0xbdccc1cb	-0.099979006
131	0xbd54ea5c	-0.051981315
132	0x3d4e753b	0.05040477
133	0xbd5c493d	-0.053780783
134	0x3d502a08	0.050821334
135	0xbdb208e7	-0.08693104
136	0xbce6950c	-0.028147243
137	0xbda98a19	-0.08278293
138	0x3cdc3335	0.026879886
139	0x3dc9b19e	0.09848331
140	0x3ca66739	0.020312892
141	0x3d98662d	0.074413635
142	0xbd966621	-0.07343698
143	0xbda79fb0	-0.08184755
144	0x3c821a29	0.015881615
145	0x3c3574ca	0.011075208
146	0x3c4e80b2	0.012603926
147	0xbbbc1d40	-0.0057407916
148	0xbbcaedc5	-0.006192895
149	0xbd7db745	-0.061942358
150	0xbdcbfa9a	-0.09959908
151	0x3d984a06	0.07435994
152	0xbdcd210f	-0.10016071
153	0x3cdba1cb	0.026810547
154	0x3cd7d9c7	0.026348962
155	0x3daec8b9	0.085343786
156	0x3d92e27c	0.07172105
157	0xbd5896d1	-0.052878205
158	0xbdbcba12	-0.092151776
159	0xbdc03548	-0.093851626
160	0x3d831c9b	0.064019404
161	0x3dba1685	0.090863265
162	0x3d3f942f	0.04677218
163	0xbdc85831	-0.09782446
164	0xbbbb894c	-0.005723154
165	0x3db93168	0.090426266
166	0xbd5b0fe1	-0.05348194
167	0xbd833dd7	-0.064082794
168	0x3d9e65b5	0.07734243
169	0xbced6312	-0.028977904
170	0xbdbf008e	-0.09326278
171	0x3ccd9565	0.02509565
172	0x3d08854e	0.033330254
173	0xbd9ae0bc	-0.07562396
174	0xbd980a85	-0.074238814
175	0xbd7a752a	-0.061146893
176	0x3d347453	0.044056248
177	0xbc8a91b9	-0.01691519
178	0x3ce24cbb	0.027624479
179	0xbcb3ffe5	-0.021972606
180	0x3de4d772	0.111739054
181	0xbd3a0df0	-0.045423448
182	0x3d127c32	0.035762973
183	0x3cca6f92	0.024711404
184	0x3d2ed292	0.042681284
185	0x3d1550f5	0.03645416
186	0xbdd9f05e	-0.106415495
187	0x3d162dde	0.036664836
188	0x3cd252b1	0.025674196
189	0x3d855a0e	0.06511317
190	0x3cf670b9	0.030083047
191	0xbcfba80e	-0.030719783
192	0x3d9b5d89	0.075862
193	0x3d54d7c0	0.051963568
194	0x3bdf4cc4	0.006814571
195	0x3d7648a3	0.060127866
196	0x3d806fea	0.06271346
197	0xbda5679e	-0.08076404
198	0x3e15af78	0.14617717
199	0x3dde2c50	0.10848296
200	0x3d73994f	0.05947238
201	0xbda54f8e	-0.080718145
202	0x3dbf7878	0.093491495
203	0xbd9fed9d	-0.07808993
204	0x3d3023c2	0.04300285
205	0x3d2f2444	0.042759195
206	0x3de175ac	0.11008772
207	0xbda18df0	-0.078884006
208	0x3db471fe	0.08810805
209	0x3de86248	0.11346871
210	0xba1bf397	-0.00059490785
211	0x3d2dd960	0.042443633
212	0x3bf634d2	0.007513621
213	0xbd7602c0	-0.060061216
214	0xbc5b2a1b	-0.013376738
215	0x3c89ea65	0.0168354
216	0xbd849d04	-0.06475261
217	0xbd463a17	-0.048395243
218	0x3d193f70	0.037414014
219	0xbd5fbc93	-0.054623198
220	0x3cafbf33	0.021453476
221	0xbdf76b88	-0.12081057
222	0x3be2dde3	0.0069234236
223	0xbdb8c733	-0.09022369
224	0xbe01b572	-0.12666872
225	0x3df2253c	0.11823508
226	0xbdd25657	-0.10270374
227	0xbd118936	-0.035531245
228	0x3bc0610c	0.005870944
229	0x3d89d20e	0.06729518
230	0xbcb9e838	-0.022693738
231	0xbd328501	-0.043583874
232	0x3d9ad1af	0.07559525
233	0x3d2caf43	0.04215933
234	0x3d6d878b	0.057990592
235	0xbd7c3945	-0.061578054
236	0x3dc9ba42	0.09849979
237	0xbd80ced3	-0.062894486
238	0xbdd9738f	-0.10617744
239	0x3d1bc1c4	0.038026586
240	0xbd9f4524	-0.077768594
241	0xbd2ef2fe	-0.042712204
242	0x3c578a91	0.013155595
243	0x3cd4ce89	0.02597739
244	0xbdcb4667	-0.099255376
245	0x3cdbf9dc	0.02685254
246	0xbbf8d475	-0.007593686
247	0x3d13b734	0.036063388
248	0x3dc4b128	0.096041024
249	0xbd54961e	-0.051900975
250	0x3dc6f8fd	0.097154595
251	0xbc3bc160	-0.011459678
252	0x3dbd5653	0.09244981
253	0x3db0c6b3	0.08631649
254	0x3d8dceef	0.06924235
255	0xbdb047e8	-0.08607465

embedding.bias f4 [64]
0	0x3c985d35	0.018599132
1	0xbd661ee0	-0.05618179
2	0xbdba60d1	-0.091004975
3	0xbd27dc56	-0.040981613
4	0x3c911bf5	0.017713526
5	0xbb2b0b14	-0.0026099132
6	0xbde213c2	-0.11038925
7	0x3d9b90fb	0.07596012
8	0xbdcb8af7	-0.09938615
9	0x3d168c13	0.03675468
10	0xbde4b4a5	-0.11167268
11	0x3db1c6f3	0.08680525
12	0xbce5b1a5	-0.02803881
13	0x3d6738e8	0.056450754
14	0x3dad57e8	0.084640324
15	0xbdcd0c5b	-0.10012122
16	0xbdc35bf0	-0.0953902
17	0xbcedd25b	-0.02903097
18	0x3d95b2ab	0.07309469
19	0x3d4c05a9	0.049810085
20	0x3ba141d6	0.0049211783
21	0xbd641a1d	-0.055688966
22	0x3d2a406f	0.041565355
23	0xbd5b335e	-0.053515784
24	0x3d5e78e9	0.054314528
25	0xbde68c04	-0.112571746
26	0xbc37dd38	-0.011222176
27	0xbd639966	-0.055566214
28	0x3c884265	0.016633222
29	0xbdf5888c	-0.11988935
30	0xbd9d4c5b	-0.07680579
31	0xbdb110e9	-0.086458035
32	0xbdb574a4	-0.08860138
33	0xbe00e4d1	-0.12587287
34	0xbdd00c3c	-0.101585835
35	0xbd52a715	-0.051428873
36	0xbd8db8bd	-0.06920002
37	0xbd1db2f8	-0.038500756
38	0xbc0e28ea	-0.008676747
39	0xbdab64ac	-0.08368811
40	0xbd70d5e0	-0.058797717
41	0xbd463856	-0.04839357
42	0x3d54a4bd	0.05191492
43	0xbc6b79a7	-0.014372266
44	0x3d8e1e7f	0.069394104
45	0x3d9b9f97	0.07598799
46	0x3da9676e	0.08271681
47	0xbd87d455	-0.06632296
48	0x3cd05251	0.025429877
49	0x3d6b71f2	0.057481714
50	0xbd7e0c02	-0.06202317
51	0xbc188968	-0.009310104
52	0x3ceac591	0.02865866
53	0xbdc84db8	-0.09780449
54	0xbdae141a	-0.08499928
55	0x3d2ef254	0.04271157
56	0x3d9037b0	0.070418715
57	0xbd1e1915	-0.03859814
58	0xbdc210a1	-0.09475828
59	0x3dbf9dbb	0.093562566
60	0x3d84c531	0.06482924
61	0xbd8c58f5	-0.06852905
62	0x3da5c560	0.08094287
63	0xbc3f6251	-0.011681155

convs.0.fc_full.weight f4 [128, 169]
0	0x3c7ddf2c	0.015495103
1	0xbd8e7d01	-0.06957436
2	0xbd51dde9	-0.05123702
3	0xbd5ca92e	-0.05387228
4	0x3cace467	0.021105004
5	0xbdc51caa	-0.09624608
6	0xbd47f447	-0.048816945
7	0x3d29acd0	0.041424572
8	0xbd8d99de	-0.069141135
9	0x3d276573	0.040868234
10	0xbcec6c15	-0.028860131
11	0xbc8ba940	-0.017048478
12	0x3d173bf1	0.0369224
13	0x3d0f497c	0.03498219
14	0xbbad89a1	-0.0052959477
15	0x3d3d401b	0.046203714
16	0x3c0b3def	0.008498653
17	0x3acbc4bd	0.0015546303
18	0x3d88f143	0.06686642
19	0x3c8c2515	0.017107526
20	0xbc1759d1	-0.0092377225
21	0x3cd87eac	0.02642759
22	0x3d8253d0	0.06363642
23	0xbd1baa99	-0.03800449
24	0x3d1f2b52	0.038859673
25	0xbd0918a3	-0.03347076
26	0xbd4473a4	-0.047961846
27	0x3c434651	0.01191862
28	0x3c0b6813	0.0085087
29	0x3b705d53	0.003667672
30	0x3d836399	0.06415481
31	0xbd44b337	-0.048022475
32	0x3ca51ac7	0.02015437
33	0x3d5c5f1f	0.053801652
34	0xbd3c685b	-0.04599796
35	0xbd8acf4e	-0.067778215
36	0x3cc90607	0.024539007
37	0xbb303faa	-0.0026893415
38	0x3d5d5c2d	0.054042984
39	0x3d0b5096	0.0340124
40	0xbd9781a9	-0.073977776
41	0x3cddc635	0.027072052
42	0x3d779204	0.060441986
43	0xbad60b01	-0.0016330184
44	0xbcb93b44	-0.022611268
45	0x3d4850cd	0.048905183
46	0xbc0b991c	-0.008520391
47	0xbd6e32ff	-0.058154102
48	0xbd5ee2d9	-0.054415558
49	0xbc8759f3	-0.016522383
50	0xbd25c476	-0.040470563
51	0x3d433b3d	0.047663916
52	0x3d0e150b	0.034688037
53	0xbd8d60c7	-0.069032244
54	0xbdaf2bae	-0.08553253
55	0x3d2b7cbb	0.041867
56	0x3d2b86c9	0.041876588
57	0x3d810348	0.06299454
58	0x3bcfde88	0.0063436665
59	0xbd2f6912	-0.042824812
60	0x3b27d773	0.0025610595
61	0xbd5b42b3	-0.053530406
62	0xbdb6097a	-0.08888526
63	0xbd38610c	-0.045014426
64	0x3cddfb42	0.027097348
65	0xbd0a9ff7	-0.03384396
66	0x3d502821	0.05081952
67	0x3d5e5ec8	0.05428961
68	0xbc660002	-0.014038088
69	0x3c7ccaf0	0.015429243
70	0xbd08da89	-0.033411536
71	0xbc9af8d9	-0.018917488
72	0x3c96cc61	0.018408002
73	0xbd814e9e	-0.06313823
74	0xbd31d4af	-0.04341572
75	0x3cfd3d89	0.030913131
76	0xbcdac619	-0.026705788
77	0xbd3e16e8	-0.046408564
78	0xbcf96981	-0.030445816
79	0x3c303ae8	0.010756232
80	0xbd2d108b	-0.042252105
81	0xbdc2a094	-0.09503284
82	0xbd752948	-0.059853822
83	0xbd333b52	-0.043757744
84	0xbc173604	-0.009229187
85	0x3cc52ba6	0.024068665
86	0x3c71074e	0.014711214
87	0xbd87a1fa	-0.066226915
88	0xbd05ce52	-0.032667466
89	0xbd85cca8	-0.06533176
90	0xbd3608f4	-0.044442132
91	0x3d6d7bf1	0.057979528
92	0xbcb855f4	-0.022501923
93	0xbd078e04	-0.03309442
94	0xbcc2990d	-0.02375462
95	0x3b48c9ee	0.0030637938
96	0xbd92b83b	-0.071640454
97	0xbd60ea62	-0.054911025
98	0xbdaab5a9	-0.0833543
99	0x3d7a09a8	0.061044365
100	0x3d6fdef7	0.058562245
101	0xbd7a797c	-0.061151013
102	0xbc98819b	-0.018616488
103	0xbbd06ccd	-0.0063606263
104	0x3d94738b	0.072486006
105	0xbd4f1859	-0.05056033
106	0xbd0aa3bf	-0.033847567
107	0x3ceed314	0.029153384
108	0xbbaee6e7	-0.0053375843
109	0xbc504a61	-0.012713046
110	0x3d8b5917	0.06804102
111	0xbc9167b1	-0.01774964
112	0xbd08a862	-0.033363707
113	0x3cd44c3b	0.025915256
114	0x3c9df102	0.01927996
115	0xbd0a49fa	-0.033761956
116	0x3cf1c9f9	0.029515253
117	0xbbf14907	-0.007363442
118	0x3d79cb6d	0.060985018
119	0x3ce100c3	0.027466184
120	0xbc836110	-0.016037494
121	0xbc961f78	-0.018325552
122	0xbd24545c	-0.040119514
123	0xbcc6cc5f	-0.024267374
124	0xbcda653a	-0.026659597
125	0x3d8ac80f	0.067764394
126	0x3d0ff921	0.035149697
127	0x3d40c056	0.047058426
128	0x3d0bcc26	0.034130238
129	0x3d1b1e92	0.03787095
130	0xbd9a44b4	-0.07532635
131	0x3d6a5855	0.057213146
132	0x3d2b85e2	0.041875727
133	0x3d6f0c8f	0.058361586
134	0xbd75b10a	-0.05998329
135	0xbc3a6636	-0.011376908
136	0xbdb0b65c	-0.08628532
137	0x3cfcea48	0.030873433
138	0x3c1cbcac	0.009566467
139	0xbda96fb3	-0.08273258
140	0x3bd082bd	0.0063632415
141	0xbb472f44	-0.0030393163
142	0x3da9e975	0.082964815
143	0x3cd9f1ce	0.02660456
144	0x3db90d68	0.0903576
145	0x3baf2379	0.005344805
146	0xba544533	-0.00080974697
147	0xbda9d9db	-0.08293506
148	0xbd6058b3	-0.05477209
149	0xbd93da59	-0.07219381
150	0xbd249d02	-0.040188797
151	0x3d02d23e	0.031938784
152	0xbc38c559	-0.01127752
153	0x3dc53bb9	0.09630532
154	0xbcc6627f	-0.024216888
155	0x3bceb0e1	0.0063077067
156	0xbcef4c45	-0.029211173
157	0xbd92770e	-0.07151614
158	0x3d953b7e	0.07286738
159	0xbb9bf182	-0.0047590146
160	0xbd87b3f8	-0.06626123
161	0xbd3de0e7	-0.04635706
162	0x3b1c2ea9	0.0023831523
163	0xbcf45bd4	-0.029828943
164	0xbd137cf1	-0.036007825
165	0xbd3d7e1d	-0.04626285
166	0xbd4b1530	-0.049580753
167	0x3d9a3237	0.07529109
168	0x3c8aecd8	0.016958639
169	0xbcaa928c	-0.020821832
170	0xbd70f1b7	-0.058824267
171	0x3cc6e1b3	0.024277544
172	0xbd388c51	-0.04505569
173	0xbd89ba8c	-0.06725034
174	0xbc9d9966	-0.019238185
175	0xbd0ab8be	-0.03386759
176	0xbd22f8e6	-0.03978815
177	0x3d8b35f2	0.067973986
178	0x3afb6394	0.0019179457
179	0x3cac8886	0.021061193
180	0x3cdc7241	0.02690995
181	0x3d591986	0.053002857
182	0x3d989c0c	0.074516386
183	0xbd5c27a8	-0.053748757
184	0xbd90c27d	-0.07068346
185	0x3cf460ab	0.029831251
186	0x3d5af29a	0.05345402
187	0xbd92cffe	-0.071685776
188	0xbd3361d0	-0.043794453
189	0x3ca3adca	0.01998033
190	0x3d810d0d	0.06301317
191	0xbce86e94	-0.02837304
192	0x3d7e0a41	0.062021498
193	0xbd86ce27	-0.06582289
194	0xbbc65bfa	-0.006053445
195	0x3d84a95f	0.064776175
196	0x3d65f002	0.056137092
197	0x3b4f5cf9	0.003164111
198	0x3d85a951	0.06526435
199	0xbd5d3722	-0.054007657
200	0xbd50098e	-0.050790362
201	0xbd7566bd	-0.059912432
202	0xbbb7c420	-0.0056080967
203	0xbd2bb8bb	-0.04192422
204	0x3da6a3a6	0.08136682
205	0xbcc9efc9	-0.024650471
206	0xbc5ea082	-0.013588073
207	0xbd87206e	-0.06597982
208	0x3db05b34	0.086111456
209	0x3c4824b2	0.01221578
210	0x3d0adadd	0.03390013
211	0xbc5a445e	-0.013321964
212	0x3cee5bed	0.029096568
213	0x3c476efd	0.012172458
214	0x3d3376c4	0.043814436
215	0xbcd42876	-0.0258982
216	0xbbb86a4d	-0.0056279064
217	0xbbdb589a	-0.0066939117
218	0xbca62c8a	-0.02028491
219	0x3d78c9ca	0.060739316
220	0xbd54a5ed	-0.05191605
221	0xbcde4250	-0.02713123
222	0xbc746003	-0.014915469
223	0xbd49ad16	-0.049237333
224	0x3c88ffa8	0.016723469
225	0xbd8af6f0	-0.06785381
226	0x3ca615a2	0.020273987
227	0x3d6305c8	0.055425435
228	0xba4624ca	-0.00075585826
229	0xbbe281a0	-0.006912425
230	0x3d9ce13b	0.07660147
231	0x3cb040d8	0.021515295
232	0x3d6f32fa	0.058398224
233	0xbd9a4b85	-0.075339355
234	0xbd8dc635	-0.069225706
235	0x3d52a4e9	0.0514268
236	0xbd106c5c	-0.03525959
237	0x3d396f59	0.045272205
238	0xbce58ee7	-0.028022243
239	0x3d5ba43d	0.053623427
240	0xbd240b45	-0.04004981
241	0xbca4777c	-0.020076506
242	0x3d623236	0.055223666
243	0xbcf862a0	-0.030320466
244	0x3c03def1	0.008048759
245	0xbd19bede	-0.03753554
246	0xbd0b2883	-0.03397418
247	0xbd996190	-0.07489312
248	0xbd633630	-0.0554716
249	0x3d549c58	0.051906914
250	0xbcb2e4c4	-0.0218376
251	0x3d91aa81	0.07112599
252	0x3ccc5019	0.024940537
253	0xbd9cc023	-0.07653835
254	0xbcd714cd	-0.026255036
255	0xbc9022c2	-0.017594699

convs.0.fc_full.bias f4 [128]
0	0x3d3ae22c	0.04562585
1	0x3d8c380e	0.06846629
2	0x3d8dd3bd	0.069251515
3	0x3d8c8274	0.068608195
4	0xbd974032	-0.07385291
5	0xbc52f0c0	-0.012874782
6	0x3d8791f3	0.066196345
7	0x3d926f2f	0.07150113
8	0xbc882d94	-0.016623296
9	0xbd8838c2	-0.06651451
10	0xbd637d49	-0.055539403
11	0x3cc8ff43	0.02453578
12	0xbcb2db13	-0.021832978
13	0x3cb58aac	0.02216085
14	0x3d5a3615	0.053274233
15	0xbcc10a38	-0.023564443
16	0xbbf6cc9f	-0.007531717
17	0xbd6e66b4	-0.058203414
18	0x3b6220bd	0.0034504377
19	0x3d6acb60	0.05732286
20	0x3c89def2	0.016829941
21	0x3d7f3f00	0.06231594
22	0x3be31056	0.0069294376
23	0x3cf580d0	0.02996865
24	0xbd0e034d	-0.034671117
25	0xbc3163ef	-0.010827049
26	0x3d28907c	0.041153416
27	0x3d3753a4	0.0447575
28	0xbd5d83d3	-0.054080795
29	0x3d7145aa	0.058904327
30	0x3d4a2358	0.049350113
31	0x3d7f9a20	0.062402844
32	0xbca9fdbb	-0.02075087
33	0x3d99daea	0.07512458
34	0x3d5a512d	0.05330007
35	0x3d90261d	0.070385195
36	0xbcd93223	-0.026513165
37	0xbd92b057	-0.071625404
38	0xbb02c811	-0.0019955675
39	0x3d794ccf	0.060864266
40	0xbcf91c94	-0.030409135
41	0x3c16ce5e	0.009204475
42	0x3c7ce4fa	0.015435452
43	0xbcf49271	-0.029854985
44	0xbc8fabf5	-0.01753805
45	0x3cc4c811	0.02402118
46	0x3c120fb6	0.008914879
47	0x3d933e28	0.0718959
48	0xbd0fcd16	-0.035107695
49	0x3c0e614c	0.00869019
50	0xbd55345a	-0.05205188
51	0x3d42ba02	0.047540672
52	0xbd606f5b	-0.054793697
53	0xbd1be607	-0.038061168
54	0xbb590538	-0.0033114683
55	0xbd9c1167	-0.07620507
56	0xbd98421c	-0.07434484
57	0xbc5b8c2a	-0.013400117
58	0xbd789039	-0.060684416
59	0xbd0479da	-0.03234277
60	0xbd30af03	-0.043135654
61	0x3c1585d6	0.009126147
62	0xbd4c92fe	-0.04994487
63	0x3d12912c	0.035782978
64	0x3d578e8a	0.05262617
65	0xbd840523	-0.06446292
66	0xbd5174c6	-0.051136754
67	0x3d767cd7	0.06017765
68	0xbd3ab515	-0.04558285
69	0xbca9d5e2	-0.02073187
70	0x3d102e10	0.03520018
71	0xbc3cce08	-0.011523731
72	0xbd9a8667	-0.075451665
73	0xbd999eaf	-0.075009696
74	0x3d886421	0.06659723
75	0xbbf606ff	-0.007508158
76	0xbd093dbc	-0.03350614
77	0x3d99f724	0.075178415
78	0x3cb52f1b	0.022117188
79	0xbd66b102	-0.05632115
80	0x3cdb4f09	0.026771085
81	0x3d5c37c8	0.053764135
82	0xbd88175c	-0.066450804
83	0xbd494ecc	-0.049147412
84	0x3d8687b2	0.065688506
85	0x3b3e045c	0.0028994298
86	0x3d19ae2a	0.03751961
87	0x3d40d2a6	0.04707589
88	0x3d1fe499	0.039036367
89	0x3d468102	0.048462875
90	0xbc46e9f0	-0.012140736
91	0xbb3d83cd	-0.002891767
92	0xbcf230d6	-0.029564302
93	0xbb8f0265	-0.004364299
94	0xbd41babd	-0.047297228
95	0x3c811adf	0.015759883
96	0x3cf081bc	0.029358737
97	0xbbce31ec	-0.0062925722
98	0xbd4f691b	-0.050637346
99	0x3d38cf32	0.04511947
100	0x3d6519ef	0.055932935
101	0xbc61b986	-0.013777142
102	0xbcf25d11	-0.029585393
103	0xbcdf56ed	-0.02726313
104	0x3c399c9e	0.011328844
105	0xbd2f2efd	-0.04276942
106	0x3c86baf9	0.016446577
107	0x3bc4427c	0.005989371
108	0x3bbffea0	0.005859211
109	0x3d3fef7f	0.04685926
110	0xbd1fc6a9	-0.039007816
111	0xbd52fc42	-0.051510103
112	0xbbb44c2a	-0.0055022435
113	0xbbfdde34	-0.007747436
114	0x3d7e1d80	0.062039852
115	0xbcbb811c	-0.022888713
116	0x3cd491ab	0.025948366
117	0xbd956476	-0.07294552
118	0xbd96ddee	-0.073665485
119	0x3d3216da	0.043478824
120	0xbd9d064a	-0.07667215
121	0xbd3bd224	-0.045854703
122	0x3d4c0110	0.0498057
123	0x3d5bb55c	0.053639755
124	0xbd57758a	-0.05260233
125	0x3cdb816f	0.026795117
126	0x3d95f186	0.073214576
127	0x3d9cb310	0.07651341

convs.0.bn1.weight f4 [128]
0	0x3f81ae1b	1.0131258
1	0x3f815cac	1.0106406
2	0x3f80d151	1.0063878
3	0x3f82d59d	1.022144
4	0x3f80fd04	1.0077214
5	0x3f80b623	1.0055584
6	0x3f816ff5	1.0112292
7	0x3f80f36d	1.0074288
8	0x3f82737d	1.0191494
9	0x3f81337d	1.0093838
10	0x3f82a8b8	1.0207739
11	0x3f812e3a	1.0092232
12	0x3f80aa34	1.0051942
13	0x3f83004a	1.0234463
14	0x3f834172	1.0254347
15	0x3f811f9a	1.0087769
16	0x3f820be6	1.0159881
17	0x3f81f6b0	1.0153408
18	0x3f83f8df	1.0310324
19	0x3f818ab0	1.0120449
20	0x3f82f17c	1.0229945
21	0x3f8215d5	1.0162913
22	0x3f80eaa7	1.007161
23	0x3f80785e	1.0036733
24	0x3f81a8a9	1.0129596
25	0x3f81fa6b	1.0154546
26	0x3f8202fa	1.0157158
27	0x3f817e04	1.0116582
28	0x3f8165a1	1.010914
29	0x3f81d5b8	1.0143347
30	0x3f828996	1.0198238
31	0x3f80b98a	1.0056622
32	0x3f805992	1.0027335
33	0x3f836e43	1.0268024
34	0x3f833df5	1.0253283
35	0x3f81cc97	1.0140561
36	0x3f82e5eb	1.0226415
37	0x3f822bb8	1.0169592
38	0x3f826716	1.0187709
39	0x3f8141f7	1.0098256
40	0x3f807f06	1.0038764
41	0x3f81bcec	1.0135779
42	0x3f805a91	1.0027639
43	0x3f806be6	1.0032928
44	0x3f80d215	1.0064112
45	0x3f80dc42	1.0067217
46	0x3f81771c	1.0114474
47	0x3f83af83	1.0287937
48	0x3f82491b	1.017856
49	0x3f8393fe	1.0279539
50	0x3f8136d6	1.009486
51	0x3f8185ba	1.0118935
52	0x3f808fae	1.0043848
53	0x3f7dfcb1	0.992137
54	0x3f81a958	1.0129805
55	0x3f8204df	1.0157737
56	0x3f80c4b1	1.0060025
57	0x3f818e2e	1.0121515
58	0x3f809087	1.0044106
59	0x3f81d3f0	1.0142803
60	0x3f826f5f	1.0190238
61	0x3f801c9f	1.0008734
62	0x3f8480a1	1.0351754
63	0x3f829122	1.0200541
64	0x3f8152c5	1.0103384
65	0x3f80e977	1.0071248
66	0x3f8198a6	1.012471
67	0x3f829b0a	1.0203564
68	0x3f8162fd	1.0108334
69	0x3f7f54c3	0.9973871
70	0x3f8047ca	1.0021908
71	0x3f80de49	1.0067836
72	0x3f805358	1.0025434
73	0x3f810814	1.008059
74	0x3f8057b2	1.0026762
75	0x3f80f43b	1.0074533
76	0x3f80587c	1.0027003
77	0x3f80ffed	1.0078102
78	0x3f825acb	1.0183958
79	0x3f819bd4	1.012568
80	0x3f817cdd	1.011623
81	0x3f81c8e3	1.0139431
82	0x3f81b0d0	1.0132084
83	0x3f81c078	1.0136862
84	0x3f80e7d9	1.0070754
85	0x3f822f13	1.0170616
86	0x3f80fb0c	1.0076613
87	0x3f81b0e8	1.0132113
88	0x3f80d98b	1.0066389
89	0x3f805d26	1.0028427
90	0x3f811c51	1.0086766
91	0x3f810865	1.0080687
92	0x3f80b793	1.0056022
93	0x3f816068	1.0107546
94	0x3f7fc5c8	0.99911165
95	0x3f7fcd2b	0.99922436
96	0x3f8122cc	1.0088744
97	0x3f825374	1.0181718
98	0x3f80ed56	1.0072429
99	0x3f7f6746	0.9976696
100	0x3f829438	1.0201483
101	0x3f808539	1.0040656
102	0x3f82d66e	1.0221689
103	0x3f80b8cf	1.0056399
104	0x3f8147da	1.0100052
105	0x3f821f65	1.0165831
106	0x3f804a73	1.002272
107	0x3f810a35	1.008124
108	0x3f8050af	1.0024623
109	0x3f820544	1.0157857
110	0x3f806d87	1.0033425
111	0x3f810f6d	1.0082833
112	0x3f81419d	1.0098149
113	0x3f834d73	1.0258011
114	0x3f83a01f	1.028324
115	0x3f816689	1.0109416
116	0x3f809c1e	1.0047643
117	0x3f80f5bf	1.0074996
118	0x3f826d79	1.0189658
119	0x3f8042b5	1.0020357
120	0x3f806b53	1.0032753
121	0x3f81471f	1.009983
122	0x3f80c7bd	1.0060955
123	0x3f827152	1.0190833
124	0x3f80d171	1.0063916
125	0x3f804f0d	1.0024124
126	0x3f80c3a9	1.0059711
127	0x3f81d69c	1.0143619

convs.0.bn1.bias f4 [128]
0	0xbc1fde64	-0.009757612
1	0xbb3e4e0d	-0.002903822
2	0xba8a7b63	-0.0010565337
3	0xbc1eb02b	-0.009685556
4	0xbbde1ef7	-0.0067785936
5	0x3af17f39	0.0018424756
6	0xbbb09ea9	-0.0053900075
7	0x3a203424	0.0006111285
8	0xbc1dbb4d	-0.0096271755
9	0xbc29b789	-0.0103587
10	0xbb99b2dd	-0.0046905116
11	0xbb9162ea	-0.0044368403
12	0xbb7db22d	-0.0038710937
13	0xbbda4c9c	-0.0066619646
14	0xbc6a79df	-0.014311283
15	0xbab1cb7d	-0.0013564673
16	0xba5fce66	-0.00085375307
17	0xbbde6bc5	-0.0067877495
18	0xbba3d7ba	-0.005000082
19	0xbb16a187	-0.0022984461
20	0xb88b90d7	-6.655015e-05
21	0xbba33bca	-0.0049814926
22	0xb8b022b3	-8.398797e-05
23	0x39e56659	0.0004375454
24	0xbb48a88e	-0.0030618045
25	0xbbb7b1aa	-0.005605896
26	0xbbd8324b	-0.0065977923
27	0xbb890f0e	-0.004182703
28	0xbc2ade68	-0.010429002
29	0xbc00970c	-0.007848512
30	0xbbd3cf43	-0.0064639165
31	0x3a5c8a9c	0.00084129884
32	0xbb1a9f30	-0.0023593418
33	0xbc02b21c	-0.007977035
34	0xbc07c543	-0.008286777
35	0xbbfa1acb	-0.0076325885
36	0xbab4d215	-0.001379552
37	0xbc354ef6	-0.011066189
38	0xbba6b467	-0.0050874236
39	0xbb4280bc	-0.0029678782
40	0x39c4b0bb	0.00037515708
41	0xbba49fac	-0.005023917
42	0xbb27a2c6	-0.0025579198
43	0x3a640e8e	0.00086996786
44	0xb90c1d48	-0.00013362349
45	0xbb3eb3a7	-0.002909878
46	0xbb101a4e	-0.0021988335
47	0xbc4b7781	-0.012418629
48	0xbc00bf36	-0.007858088
49	0xbbf052bb	-0.007334081
50	0xbaad43d6	-0.0013219069
51	0xbb9fd475	-0.004877622
52	0xbb1d0490	-0.0023959018
53	0x3b6c1792	0.0036024791
54	0xbc9677c3	-0.018367654
55	0xbb1cb7d2	-0.0023913276
56	0x3abd5e66	0.0014447689
57	0xbbe7af50	-0.0070704594
58	0xba174481	-0.0005770401
59	0xbbe70b9e	-0.0070509454
60	0xbb513583	-0.0031922765
61	0x3b8ca60b	0.004292255
62	0xbc00dd1d	-0.0078652175
63	0xba7b17c6	-0.00095784327
64	0xbbff2894	-0.0077868197
65	0xbbe44ebd	-0.006967394
66	0xbba5f435	-0.005064512
67	0xbc22be71	-0.0099331
68	0xbbc45483	-0.00599152
69	0x3b01d714	0.0019812034
70	0xba4067ca	-0.00073396845
71	0xb82b722f	-4.087592e-05
72	0xbb5735bb	-0.0032838422
73	0xbba929fc	-0.0051624756
74	0xbbf370a2	-0.0074291984
75	0xbb962827	-0.0045824233
76	0xbb1a1074	-0.0023508342
77	0xbb99adc6	-0.004689905
78	0xbc0bde9d	-0.008536962
79	0xbbbf4b32	-0.0058378214
80	0xbbeb5be7	-0.0071825865
81	0xbbc1cc1f	-0.0059142257
82	0xbc13e026	-0.009025609
83	0xbbbf8298	-0.0058444254
84	0xbb5be1c2	-0.003355131
85	0xbc15e118	-0.009147905
86	0xbb6d12de	-0.0036174576
87	0xbbc2ecca	-0.0059486376
88	0xbbad6710	-0.005291827
89	0xbb538d9a	-0.0032280446
90	0xbbab8a9a	-0.0052350285
91	0xbb5a23fe	-0.0033285613
92	0xbbb267f9	-0.0054445234
93	0xbc0a3a4d	-0.008436752
94	0xba472a4b	-0.00075975497
95	0x3b450bcf	0.0030066853
96	0xbb04e601	-0.0020278695
97	0xbc42e5e5	-0.011895631
98	0xbba57524	-0.0050493646
99	0xb99a3526	-0.00029412768
100	0xbc3a7008	-0.011379249
101	0xbbd82f36	-0.006597425
102	0xbc21c6c6	-0.009874051
103	0xbb0b6dc0	-0.0021275133
104	0xbba7dfd7	-0.0051231193
105	0xbbfecbee	-0.007775775
106	0xba397f97	-0.00070762023
107	0xbb1047f2	-0.002201554
108	0xbaf9690e	-0.0019028501
109	0xbbc7e9bb	-0.006100861
110	0xbb0c693e	-0.0021425034
111	0xbc03b499	-0.008038663
112	0xbb90cfa8	-0.004419286
113	0xbca8e2eb	-0.020616015
114	0xbc20f127	-0.00982312
115	0xbbd9888f	-0.0066385935
116	0xbb9bfe32	-0.004760527
117	0xba9a0d02	-0.0011753144
118	0xbc85ae29	-0.016318398
119	0xbac1ed29	-0.0014795411
120	0x3a52590c	0.0008024133
121	0xbba8dd02	-0.0051532993
122	0xbae0ba1c	-0.0017145309
123	0xbc2d2f01	-0.010570289
124	0xbba4f5c5	-0.005034181
125	0x3a8ae5f6	0.0010597098
126	0xbbc18d4b	-0.005906736
127	0xbbd39ea6	-0.0064581214

convs.0.bn1.running_mean f4 [128]
0	0x3e274acc	0.16337126
1	0xbcf57ae8	-0.029965833
2	0xbb89705d	-0.004194303
3	0x3e087b0a	0.13328186
4	0x3c190a59	0.009340846
5	0xbdbbc4b7	-0.0916838
6	0x3df79db9	0.1209063
7	0x3e1a51da	0.15070286
8	0xbda9af46	-0.08285384
9	0xbdcafd02	-0.09911539
10	0xbe204c12	-0.15654019
11	0x3e2187cd	0.1577446
12	0xbd980a5d	-0.07423852
13	0x3cfc731f	0.030816613
14	0x3c80abc5	0.015706906
15	0xbbed480e	-0.0072412556
16	0xbd2e89b5	-0.042611796
17	0xbe0c9f13	-0.13732557
18	0xbd920069	-0.071289845
19	0xbd474127	-0.04864612
20	0x3d0f5fce	0.035003476
21	0x3d54443d	0.05182289
22	0xbe39ebf6	-0.18156418
23	0x3d64dc0d	0.05587392
24	0x3daab07f	0.08334445
25	0xbdd945c3	-0.10609009
26	0xbc8b55e5	-0.017008731
27	0xbb5c1fa9	-0.0033588207
28	0xbda8940b	-0.08231362
29	0x3c4f7a1d	0.012663391
30	0x3e02d68b	0.12777154
31	0x3dc44f64	0.09585455
32	0xbd876013	-0.066101216
33	0x3e1d6437	0.1537026
34	0x3b2e4625	0.0026592102
35	0x3e1d7aee	0.15378925
36	0xbe45aeaa	-0.1930491
37	0xbe1079ee	-0.14109012
38	0x3c53fb5d	0.012938348
39	0x3d6bb8f6	0.05754944
40	0x3cb9d745	0.022685656
41	0x3d100395	0.035159666
42	0x3d9b2b56	0.07576625
43	0xbcf4098c	-0.029789709
44	0xbcc9e73d	-0.024646396
45	0x3c4a3896	0.012342593
46	0x3d25b926	0.040459774
47	0x3d98662e	0.07441364
48	0x3ca9636e	0.020677295
49	0xbdec1ec1	-0.11529303
50	0xbb8c47a9	-0.0042810035
51	0x3d9dd127	0.07705908
52	0x3cc8ceea	0.024512727
53	0xbe14c129	-0.1452681
54	0xbd809d61	-0.06280018
55	0xbc8fc76c	-0.017551146
56	0xbe55c885	-0.20877273
57	0x3d91a1fb	0.071109734
58	0xbe39dc02	-0.18150333
59	0xbd8c0577	-0.0683698
60	0x3c3332e2	0.010937424
61	0x3cf27630	0.029597372
62	0xbd8f666a	-0.07001956
63	0x3db72db6	0.089442655
64	0x3e25ef24	0.16204506
65	0xbe22b991	-0.158911
66	0x3d2381d4	0.039918736
67	0x3d9b5d11	0.075861104
68	0xbdc5f366	-0.09665565
69	0xbe088445	-0.13331707
70	0x3d47ae53	0.048750233
71	0xbddc5916	-0.10759179
72	0xbe4e5abb	-0.20151798
73	0xbdccbbb5	-0.0999674
74	0xbe2c1794	-0.1680587
75	0x3bb97ecc	0.0056608673
76	0xbd3c36d7	-0.045950737
77	0x3d78068a	0.06055311
78	0xbe15f2d4	-0.14643413
79	0xbe250325	-0.16114481
80	0xbe17bf80	-0.14819145
81	0x3db56716	0.08857553
82	0xbe2d99ab	-0.16953151
83	0xbde04fa2	-0.10952689
84	0xbd1fac0d	-0.03898244
85	0xbd201b8a	-0.039088763
86	0x3db02ba4	0.08602074
87	0x3d0c823b	0.034303885
88	0x3cc9e7bd	0.024646634
89	0x3def5623	0.11686351
90	0x3d0394fd	0.03212451
91	0xbc766b7a	-0.015040273
92	0xbd3de772	-0.0463633
93	0x3dc942ec	0.098272175
94	0xbdbeaba6	-0.09310083
95	0xbd92eb0c	-0.07173738
96	0x3c48a28d	0.012245786
97	0xbdfade42	-0.122494236
98	0x3dc5ca37	0.0965771
99	0x3e02e60b	0.12783067
100	0xbdcb5ed2	-0.09930195
101	0xbd20a313	-0.03921802
102	0xbcbdf780	-0.023189306
103	0x3db1c4a8	0.08680087
104	0xbb9966a4	-0.004681425
105	0xbd1f63b9	-0.038913462
106	0x3c8ad5f7	0.01694773
107	0x3dd08b86	0.10182862
108	0x3ba4b5e8	0.0050265677
109	0x3e0f949d	0.14021535
110	0xbe6e6c11	-0.23283412
111	0x3c3637de	0.011121718
112	0xbda4dde1	-0.080501325
113	0xbe3c87f8	-0.18411243
114	0x3d9d28f6	0.07673828
115	0xbd9ff52c	-0.07810435
116	0x3bc14137	0.005897667
117	0xbc5d9292	-0.013523715
118	0xbe0cbd46	-0.13744077
119	0x3e036ba3	0.12834029
120	0x3ccc382d	0.02492913
121	0xbd813c62	-0.06310345
122	0x3de23de8	0.11046964
123	0x3d3ccceb	0.046093863
124	0xbc8ba97c	-0.01704859
125	0xbc719a01	-0.01474619
126	0x3d5a79b5	0.053338725
127	0x3db70b54	0.089377075

convs.0.bn1.running_var f4 [128]
0	0x3c200377	0.009766451
1	0x3c489e2a	0.0122447405
2	0x3c31fbd8	0.010863267
3	0x3c49def0	0.012321219
4	0x3c0bdd97	0.008536718
5	0x3c035a60	0.008017153
6	0x3c35ccfe	0.011096237
7	0x3be40d03	0.006959559
8	0x3c1eee8d	0.00970043
9	0x3c2f77b1	0.010709689
10	0x3c177ca0	0.0092460215
11	0x3be21836	0.006899859
12	0x3c087e4e	0.008330895
13	0x3c2d988f	0.010595455
14	0x3c8eac78	0.017416224
15	0x3c302405	0.010750775
16	0x3c2d1395	0.010563751
17	0x3c65d4f6	0.014027825
18	0x3c5b4359	0.013382756
19	0x3c066160	0.008201927
20	0x3c1cb7ff	0.009565352
21	0x3c1438d3	0.009046751
22	0x3c28ade0	0.010295361
23	0x3c0b55f3	0.008504379
24	0x3c234b75	0.009966721
25	0x3c328b94	0.010897536
26	0x3c32bc07	0.010909087
27	0x3c16b571	0.009198532
28	0x3c140d06	0.009036308
29	0x3c087675	0.008329024
30	0x3c468a03	0.0121178655
31	0x3c05d781	0.008169056
32	0x3c3741b3	0.0111850975
33	0x3c417f58	0.011810146
34	0x3c2d0d9e	0.010562329
35	0x3c82bd18	0.015959308
36	0x3c5d9f3e	0.013526736
37	0x3c3ca464	0.011513803
38	0x3c41d0b9	0.0118295485
39	0x3c2182e6	0.009857869
40	0x3c141b71	0.009039746
41	0x3c0996fe	0.008397816
42	0x3bf40215	0.0074465373
43	0x3c06652c	0.008202832
44	0x3c4b0c79	0.01239311
45	0x3c1078ce	0.008817865
46	0x3c184578	0.009293906
47	0x3c50efa0	0.012752444
48	0x3c498510	0.012299791
49	0x3c868f91	0.01642588
50	0x3c0f3d03	0.008742574
51	0x3bfc293d	0.0076953457
52	0x3c38e1c1	0.011284293
53	0x3c1a0a80	0.009401917
54	0x3c3aa460	0.011391729
55	0x3c438ced	0.011935455
56	0x3c2d5d2a	0.010581294
57	0x3c484557	0.012223563
58	0x3c20312c	0.0097773485
59	0x3c1c0c9b	0.00952449
60	0x3c2ea89e	0.010660319
61	0x3c3b9a26	0.011450326
62	0x3c14ae59	0.009074771
63	0x3c39553c	0.011311825
64	0x3c1b68e1	0.009485454
65	0x3c8f4685	0.017489681
66	0x3c4e9cd3	0.012610632
67	0x3c5d6782	0.013513448
68	0x3c045826	0.008077657
69	0x3c2cb6a4	0.010541592
70	0x3c5eda9c	0.013601925
71	0x3c2ef8b7	0.010679415
72	0x3c420744	0.011842553
73	0x3c8811a1	0.016609969
74	0x3c87c493	0.016573226
75	0x3c286244	0.010277335
76	0x3c164ade	0.009173123
77	0x3c611e98	0.013740204
78	0x3c892441	0.01674092
79	0x3c676bd7	0.014124832
80	0x3c7b6c53	0.015345651
81	0x3c60b676	0.013715377
82	0x3c968f03	0.01837874
83	0x3c69d887	0.014272816
84	0x3c86f396	0.016473573
85	0x3c751cc8	0.014960475
86	0x3c3376ba	0.0109536
87	0x3c6ee960	0.014582008
88	0x3c6790a4	0.014133606
89	0x3c62616a	0.013817171
90	0x3c53b0d0	0.012920573
91	0x3c416c5f	0.011805623
92	0x3c40e830	0.011774108
93	0x3c7024ee	0.014657242
94	0x3c8bea61	0.017079534
95	0x3c4fa36b	0.012673239
96	0x3c76df9e	0.015067963
97	0x3c866dc6	0.016409766
98	0x3c667abf	0.014067351
99	0x3c46a29a	0.012123728
100	0x3c6d4992	0.014482873
101	0x3c914c40	0.017736554
102	0x3c5c15ca	0.013432929
103	0x3c456edd	0.012050358
104	0x3ca5bcb2	0.020231578
105	0x3c46f52e	0.012143416
106	0x3c31315b	0.01081499
107	0x3c58038f	0.013184442
108	0x3c7631d4	0.015026528
109	0x3c35a2a4	0.01108614
110	0x3c6a700e	0.0143089425
111	0x3c83b513	0.016077554
112	0x3c86395d	0.016384775
113	0x3c9f294b	0.01942887
114	0x3c559259	0.01303538
115	0x3c282af4	0.010264147
116	0x3c362cd0	0.011119083
117	0x3c5c40c5	0.013443177
118	0x3c174d16	0.009234687
119	0x3c59ecf8	0.013301127
120	0x3c6d1cf3	0.014472234
121	0x3c69f292	0.014279025
122	0x3c54a0ec	0.01297782
123	0x3c5790de	0.013157098
124	0x3c36ff62	0.011169286
125	0x3c5b3532	0.013379382
126	0x3c6d1222	0.014469655
127	0x3c931fbc	0.017959468

convs.0.bn2.weight f4 [64]
0	0x3f80729a	1.0034974
1	0x3f7cfdfd	0.98825055
2	0x3f805f7a	1.0029137
3	0x3f7f27b9	0.99669987
4	0x3f7bcad1	0.9835635
5	0x3f79ae93	0.97532004
6	0x3f7c6676	0.98593843
7	0x3f754a26	0.95816267
8	0x3f83cee2	1.0297511
9	0x3f851589	1.0397197
10	0x3f7faf3b	0.99876755
11	0x3f8077d1	1.0036565
12	0x3f7a9cf2	0.9789573
13	0x3f7b9484	0.9827349
14	0x3f874570	1.0568066
15	0x3f8034d3	1.0016121
16	0x3f7af61a	0.9803177
17	0x3f83cf44	1.0297627
18	0x3f842e6d	1.0326668
19	0x3f7e1206	0.9924625
20	0x3f7b0ec4	0.98069406
21	0x3f821826	1.016362
22	0x3f7728b9	0.9654651
23	0x3f7e7c27	0.9940819
24	0x3f79a344	0.9751475
25	0x3f7f66ec	0.9976642
26	0x3f7f5f4c	0.99754786
27	0x3f8097e7	1.0046357
28	0x3f82ac21	1.020878
29	0x3f7f2b4e	0.9967545
30	0x3f83cc30	1.0296688
31	0x3f7bbd96	0.9833616
32	0x3f8112bb	1.0083841
33	0x3f84207f	1.0322417
34	0x3f823976	1.0173786
35	0x3f7dd4bd	0.9915274
36	0x3f807821	1.003666
37	0x3f7fe818	0.9996352
38	0x3f82b65e	1.0211904
39	0x3f7d5670	0.9896002
40	0x3f80c951	1.0061437
41	0x3f7cc455	0.9873708
42	0x3f77b558	0.96761084
43	0x3f7e1f90	0.9926691
44	0x3f7fa372	0.9985877
45	0x3f8327c9	1.0246516
46	0x3f7ce348	0.98784304
47	0x3f83a39d	1.0284306
48	0x3f83ead7	1.0306042
49	0x3f81e506	1.0148017
50	0x3f818d82	1.012131
51	0x3f81af98	1.0131712
52	0x3f8082e0	1.003994
53	0x3f7ec59f	0.99520296
54	0x3f83cd11	1.0296956
55	0x3f7c0542	0.9844552
56	0x3f7c521f	0.98562807
57	0x3f819e13	1.0126365
58	0x3f8228a1	1.0168649
59	0x3f843b7d	1.0330654
60	0x3f805d15	1.0028406
61	0x3f7c4ddf	0.9855632
62	0x3f8138a8	1.0095415
63	0x3f7fbeec	0.999007

convs.0.bn2.bias f4 [64]
0	0xbcb429fd	-0.021992678
1	0xbc7c7bed	-0.015410406
2	0xbc978308	-0.018495098
3	0xbc81cf1d	-0.01584583
4	0xbc4bbf6a	-0.012435773
5	0xbc5f334f	-0.013623073
6	0xbc623add	-0.013807979
7	0xbca89075	-0.020576695
8	0xbba48913	-0.0050212233
9	0xba6e1018	-0.00090813776
10	0xbc9e755b	-0.019343069
11	0xbbe4c20c	-0.00698114
12	0xbc9e5dfc	-0.019331925
13	0xbc91ef98	-0.017814443
14	0xbbeba392	-0.00719113
15	0xbc8edddb	-0.017439773
16	0xbc84465d	-0.016146833
17	0xbc96d5db	-0.018412521
18	0xbcaa4b60	-0.020787895
19	0xbc62ca4e	-0.0138421785
20	0xbc9de7f5	-0.019275645
21	0xbc9f1631	-0.019419761
22	0xbca2b93e	-0.019863721
23	0xbc8799b9	-0.016552793
24	0xbc7f5e3a	-0.01558643
25	0xbc978c82	-0.018499617
26	0xbc69e127	-0.014274872
27	0xbc715c21	-0.014731438
28	0xbc63db51	-0.01390727
29	0xbcc62cf0	-0.02419135
30	0xbc92346e	-0.017847266
31	0xbc676f9e	-0.014125733
32	0xbcacb837	-0.021083934
33	0xbcb868fe	-0.022511002
34	0xbc6df85c	-0.0145245455
35	0xbc702233	-0.014656591
36	0xbcf8904a	-0.03034224
37	0xbc9d6c40	-0.019216657
38	0xbc51b1a8	-0.012798704
39	0xbc9ed8ce	-0.01939049
40	0xbc6d00ec	-0.014465552
41	0xbcb5e921	-0.022205891
42	0xbc62b042	-0.013835968
43	0xbc90d26d	-0.017678464
44	0xbbcd8fc6	-0.0062732426
45	0xbc8237ab	-0.015895685
46	0xbc247dba	-0.010039741
47	0xbc958451	-0.01825157
48	0xbc61cf5d	-0.013782349
49	0xbcb3cd60	-0.021948516
50	0xbc41fd0b	-0.011840115
51	0xbc94700e	-0.018119838
52	0xbc53c9ab	-0.012926499
53	0xbbff9cd8	-0.0078006797
54	0xbcb0e0e9	-0.02159162
55	0xbcb02b3c	-0.02150499
56	0xbcbc7fe3	-0.0230102
57	0xbbeb7969	-0.007186104
58	0xbc115ac0	-0.008871734
59	0xbc1d662b	-0.009606878
60	0xbc544667	-0.012956238
61	0xbc05653f	-0.008141815
62	0xbc8032a9	-0.015649157
63	0xbcd50917	-0.026005311

convs.0.bn2.running_mean f4 [64]
0	0x40a7cc0f	5.2436595
1	0x40b2e396	5.5902815
2	0x40a4f683	5.155092
3	0x40a0538a	5.0101976
4	0x40a8ea57	5.278606
5	0x4091f420	4.5610504
6	0x40a6fe31	5.218529
7	0x40a1a14f	5.050941
8	0x409d7acf	4.9212413
9	0x40a103c5	5.03171
10	0x40a53d17	5.1637073
11	0x409aa73c	4.8329144
12	0x40a01360	5.002365
13	0x40a58cb1	5.1734242
14	0x40a08dbe	5.0173025
15	0x40a321a5	5.097857
16	0x40a18ed9	5.0486875
17	0x40aa56cc	5.3230953
18	0x40a2a6ef	5.0828776
19	0x40a3c55d	5.117842
20	0x40a32508	5.0982704
21	0x409dabf4	4.9272404
22	0x40a193cb	5.049291
23	0x4099c1fc	4.8049297
24	0x40a81e56	5.253703
25	0x40aa0941	5.3136296
26	0x409f8d19	4.985974
27	0x409b184b	4.8467155
28	0x40a7cf07	5.244022
29	0x40a2ee56	5.0915937
30	0x40a17316	5.0452986
31	0x40a53e0e	5.163825
32	0x409602fa	4.6878633
33	0x409e9442	4.955598
34	0x409c3d6e	4.8824987
35	0x4094caa5	4.649737
36	0x409e99b2	4.9562616
37	0x409efd85	4.968447
38	0x4095cca4	4.6812305
39	0x40a66455	5.1997476
40	0x40b0c3c4	5.523897
41	0x409f85ef	4.9850993
42	0x40a59b88	5.1752357
43	0x40a4be0a	5.148198
44	0x40a0e0da	5.0274477
45	0x40a04736	5.0086927
46	0x40a1b1be	5.052947
47	0x40a39559	5.111981
48	0x40a177ca	5.0458727
49	0x40a8c074	5.273493
50	0x40929482	4.5806284
51	0x40a52da8	5.1618233
52	0x40a951d5	5.2912393
53	0x408dd116	4.431773
54	0x409b8929	4.860493
55	0x409fa4d2	4.9888697
56	0x40a7dcaa	5.2456865
57	0x409abd1e	4.8355856
58	0x409a9ec1	4.831879
59	0x40a245f7	5.0710406
60	0x409ab09d	4.8340592
61	0x40a6cb77	5.212337
62	0x409bf6c0	4.873871
63	0x409e84d2	4.9537134

convs.0.bn2.running_var f4 [64]
0	0x410b8498	8.7198715
1	0x4119dab6	9.615896
2	0x410a19f4	8.631336
3	0x40b95fa2	5.792924
4	0x40d37683	6.608217
5	0x4085a120	4.1759186
6	0x4120335a	10.012537
7	0x40fbc052	7.8672266
8	0x41156148	9.33625
9	0x40d72faf	6.7245708
10	0x411a835b	9.657069
11	0x40ca9e61	6.3318334
12	0x4112e3c5	9.180608
13	0x4119362b	9.575725
14	0x411a63f3	9.649402
15	0x41184c73	9.518664
16	0x40fe4bde	7.946761
17	0x4134c2f4	11.297596
18	0x40f458d0	7.6358414
19	0x411c558a	9.770884
20	0x40e6cae4	7.212267
21	0x40e63670	7.194145
22	0x41264bb4	10.393482
23	0x40c72066	6.222705
24	0x412300fd	10.187741
25	0x411bcd37	9.737601
26	0x40e555d4	7.166727
27	0x40a913bd	5.2836595
28	0x41336b28	11.213661
29	0x40d198e2	6.5499125
30	0x40e8102e	7.251975
31	0x4115ebbd	9.370053
32	0x40ccc72a	6.399312
33	0x41226fed	10.152326
34	0x40f865ca	7.7624254
35	0x40b535d0	5.662819
36	0x414fe1d7	12.992637
37	0x40ea0fcc	7.3144283
38	0x40a64edd	5.197127
39	0x41104d24	9.018833
40	0x41339a94	11.225239
41	0x4127a38f	10.477431
42	0x411569cd	9.33833
43	0x410e4e02	8.894045
44	0x410678bb	8.404475
45	0x4110bba0	9.045807
46	0x41309c8c	11.038219
47	0x40cbb1c2	6.365449
48	0x40e8279c	7.254835
49	0x41220217	10.12551
50	0x40b0c03e	5.523467
51	0x40e6fd1c	7.218397
52	0x41159789	9.349496
53	0x40629c70	3.5407982
54	0x40e25030	7.0722885
55	0x40dac2d7	6.836284
56	0x4124fc6c	10.311626
57	0x40cfda6a	6.495412
58	0x40cb7414	6.3579197
59	0x4111d373	9.114123
60	0x40dadcdd	6.839461
61	0x4124435a	10.266443
62	0x40e92090	7.285225
63	0x40e051a3	7.0099654

convs.1.fc_full.weight f4 [128, 169]
0	0xbd1987f5	-0.037483174
1	0xbc32321a	-0.010876203
2	0x3caa8e8d	0.020819927
3	0x3d7ec930	0.062203586
4	0xbd768ced	-0.06019299
5	0x3da8a841	0.08235217
6	0x3d4a0274	0.049318746
7	0xbc50fab1	-0.012755082
8	0x3d7af683	0.06127025
9	0xbbbd18be	-0.0057707718
10	0x3b237c34	0.0024945857
11	0x3c9b14ef	0.01893088
12	0x3ceb7d2a	0.028746206
13	0xbc3652f6	-0.011128178
14	0x3ccf0200	0.025269508
15	0x3cc71172	0.02430031
16	0xbd830d70	-0.063990474
17	0xbd7ddbbd	-0.061977137
18	0x3be2bfc5	0.0069198334
19	0x3e0246a9	0.12722267
20	0x3d397fcd	0.045287896
21	0x3bcf9e67	0.0063360217
22	0xbd3a2865	-0.04544868
23	0x3d84bb87	0.064810805
24	0x3d856963	0.065142415
25	0xbd0945bc	-0.03351377
26	0x3c457778	0.012052409
27	0x3c072745	0.008249109
28	0xbd733940	-0.05938077
29	0xbbdbfca5	-0.006713467
30	0x3c79beba	0.015243227
31	0xbd24309c	-0.04008542
32	0xbdc89549	-0.09794099
33	0xbb5145e5	-0.003193253
34	0xbc3c1298	-0.0114790425
35	0x3d9517fc	0.07279965
36	0x3d90eba3	0.07076194
37	0x3d0f6130	0.035004795
38	0xbbd08d86	-0.006364527
39	0x3ca22b58	0.019796059
40	0xbd7f1794	-0.062278345
41	0x3ce7e32d	0.028306568
42	0x3d87a05e	0.066223845
43	0x3b25ae8f	0.0025281047
44	0x3cf545b4	0.029940464
45	0xbd965b2e	-0.0734161
46	0x3ccd3e4d	0.025054121
47	0xbd32a9fc	-0.04361914
48	0x3d67a92c	0.05655782
49	0x3c9f5a49	0.019452231
50	0xbd7abe33	-0.061216544
51	0xbd9b57e0	-0.0758512
52	0xbd0c0193	-0.03418119
53	0xbd8274c7	-0.0636993
54	0x3d635e60	0.055509925
55	0x3da4b106	0.08041577
56	0xbcd66aa9	-0.026173906
57	0xbd3ea0df	-0.046540137
58	0x3bff5d85	0.007793131
59	0xbcb4a47f	-0.022051094
60	0x3d5f12a9	0.054461155
61	0xbd6d730a	-0.057971038
62	0xbc9456ea	-0.01810785
63	0xbca0b756	-0.019618671
64	0x3d840fd8	0.064483345
65	0xbd5df648	-0.05418995
66	0xbd417320	-0.047228932
67	0x3c895fd1	0.016769322
68	0xbcc5f4c6	-0.024164569
69	0x3c3a64dd	0.011376587
70	0xbd711db6	-0.058866225
71	0xba83c726	-0.0010053858
72	0xbcfc3c4f	-0.030790476
73	0xbd8fe188	-0.070254385
74	0x3d13296a	0.035928167
75	0x3d546100	0.05185032
76	0xbd4f1f43	-0.050566923
77	0x3d51eb6d	0.05124991
78	0xbcc5bda7	-0.024138285
79	0xbd4fb1db	-0.050706726
80	0xbcdae86e	-0.02672216
81	0x3b4a9460	0.0030911192
82	0xbd41cdd2	-0.047315426
83	0xbd855c80	-0.065117836
84	0x3d5a8f56	0.053359352
85	0x3d49670f	0.04917055
86	0x3d1cde4f	0.038297947
87	0xbd645b62	-0.055751212
88	0xbd945f50	-0.07244742
89	0x3d04d7e0	0.032432437
90	0x3d56d608	0.05245021
91	0x3d1cb6d3	0.038260292
92	0xbd7f13f1	-0.062274877
93	0xbd9d4110	-0.07678425
94	0x3d224171	0.03961319
95	0xbdb4e19e	-0.088320956
96	0x3d6e03ac	0.05810897
97	0x3d50051d	0.050786126
98	0x3c444f30	0.01198177
99	0xbc9d4622	-0.019198481
100	0xbc771647	-0.015080995
101	0x3d2e94b4	0.042622283
102	0x3c654220	0.013992816
103	0x3d5d73ff	0.0540657
104	0x3bd993cf	0.0066399346
105	0xbc36c8b6	-0.011156252
106	0xbd7c1fa1	-0.0615536
107	0x3d664e60	0.056227088
108	0x3d25baa8	0.040461212
109	0xbd99fdf6	-0.07519142
110	0x3d36ccf3	0.04462905
111	0x3d607e38	0.05480787
112	0x3cca042a	0.024660189
113	0x3bc9bb74	0.0061563794
114	0x3bbee198	0.0058252327
115	0x3d8a5bc9	0.06755788
116	0x3d3c3dfa	0.045957543
117	0xbd2528f8	-0.040322274
118	0xbcd454ca	-0.025919337
119	0x3b0644df	0.0020487828
120	0x3db13e2b	0.08654436
121	0xbd795ee3	-0.060881507
122	0xbc0e6843	-0.00869185
123	0xbdada54c	-0.084787935
124	0xbc2ee20c	-0.010674011
125	0x3d0f7f20	0.035033345
126	0xbc98567f	-0.018595932
127	0x3d2d11f7	0.04225346
128	0x3c6df8d8	0.014524661
129	0x3be8e7b0	0.0071076974
130	0xbc4db6e1	-0.012555809
131	0xbcf42dfa	-0.02980708
132	0x3ca4986a	0.020092208
133	0xbba03e7d	-0.0048902617
134	0x3d7fc8b7	0.062447276
135	0xbcd22d11	-0.025656255
136	0xbca03ac4	-0.019559272
137	0xbc4eca35	-0.012621452
138	0xbd72f695	-0.05931719
139	0x3d06e495	0.032932837
140	0xbd3c5015	-0.04597481
141	0xbd82d261	-0.06387783
142	0xbd5b01bf	-0.053468462
143	0x3cbf836a	0.023378093
144	0xbd3125d1	-0.043248955
145	0xbcd10417	-0.025514646
146	0xbd654346	-0.05597236
147	0x3d61a0f1	0.055085126
148	0x3d6f756b	0.058461588
149	0x3cfc942d	0.030832374
150	0x3d3ff17f	0.046861168
151	0x3c9a9eed	0.01887461
152	0xbd504468	-0.050846487
153	0xbd3d3549	-0.046193395
154	0x3d867145	0.06564573
155	0xbc0ff8de	-0.008787362
156	0xbd35ee2b	-0.044416588
157	0xbd731d5e	-0.05935418
158	0x3d05cc88	0.03266576
159	0xbd7926cc	-0.060828015
160	0xbd317ebb	-0.04333375
161	0x3b98ae7b	0.0046594716
162	0x3ca3baa4	0.019986458
163	0x3c228798	0.009920023
164	0x3cb2c9bc	0.02182471
165	0xbcc18262	-0.023621742
166	0xbb90d120	-0.004419461
167	0xbd169a2f	-0.036768135
168	0xbd5d9488	-0.05409673
169	0xbc71e37d	-0.01476371
170	0x3d0ac69b	0.03388081
171	0xbc875310	-0.0165191
172	0x3d6b7119	0.057480905
173	0x3cd1951a	0.025583792
174	0xbd6b9b53	-0.057521176
175	0x3c9899cc	0.018628024
176	0xbcde0e71	-0.027106496
177	0xbcb7ac7f	-0.02242112
178	0xbd220718	-0.039557546
179	0xbc53e439	-0.0129328305
180	0xbcdfbec4	-0.027312644
181	0x3d51c729	0.051215325
182	0x3d2bc1c1	0.041932825
183	0x3c008a36	0.007845452
184	0x3c2a6934	0.010401059
185	0x3d43935b	0.04774795
186	0xbdadc2dd	-0.08484433
187	0xbd726ce8	-0.059185892
188	0xbc538181	-0.012909294
189	0xbc49141b	-0.01227286
190	0xbd8dc171	-0.06921662
191	0xbc8341c1	-0.016022565
192	0xbdad07d1	-0.084487565
193	0xbd3a33ca	-0.045459546
194	0x3d970ee8	0.0737589
195	0x3da73156	0.08163707
196	0x3ceccc4e	0.028906014
197	0xbcb7f073	-0.022453522
198	0xbd9943a2	-0.07483603
199	0xbc44e02f	-0.01201634
200	0xbda1046c	-0.078621715
201	0xbd8e5360	-0.06949496
202	0x3d5144e8	0.051091105
203	0x3d0ec326	0.034854077
204	0xbd6a4062	-0.057190306
205	0xbd60eae6	-0.054911517
206	0x3d9a9f40	0.07549906
207	0xbc4149ba	-0.011797363
208	0x3d80ce84	0.0628939
209	0x3ba3660e	0.004986531
210	0xbd86f05b	-0.06588813
211	0x391dc690	0.00015046657
212	0xbdade012	-0.08490004
213	0x3d21269c	0.03934346
214	0x3d83f1d5	0.0644261
215	0xb97f5243	-0.0002434934
216	0xbd0316d8	-0.032004207
217	0x3d8e0245	0.06934027
218	0xbcee5c1a	-0.029096652
219	0x3d73f053	0.059555363
220	0xbb4bbdb2	-0.003108841
221	0x3c39346e	0.011304004
222	0xbaf2c366	-0.0018521368
223	0x3aa1cfc7	0.0012345248
224	0x3b1a4f4b	0.0023545797
225	0x3d2314ae	0.039814644
226	0x3de164a0	0.11005521
227	0xbcc777a1	-0.024349036
228	0xbd277a5f	-0.040888187
229	0xbc16e3d5	-0.009209593
230	0xbd83ad8b	-0.06429585
231	0x3c934fe6	0.017982434
232	0x3d2d99cd	0.042383004
233	0x3dacd8e5	0.08439807
234	0x3d03795a	0.03209815
235	0xbd23cbb3	-0.039989185
236	0xbcb4aae0	-0.022054136
237	0xbcc538f8	-0.024075016
238	0xbce1c71a	-0.02756076
239	0x3d4c4378	0.04986903
240	0xbc9dfaca	-0.019284625
241	0x3ce5243f	0.027971385
242	0xbcebdafc	-0.028790943
243	0x3db3b224	0.08774212
244	0x3ced5660	0.02897185
245	0x3d1be0ea	0.03805629
246	0xbd183e74	-0.037168935
247	0xbd78cdab	-0.060743015
248	0x3bfe575e	0.00776188
249	0xbd80e431	-0.06293524
250	0xbd209ba8	-0.039210945
251	0xbc91899b	-0.01776581
252	0x3d9570cd	0.07296906
253	0x3ceaf955	0.028683344
254	0x3c952341	0.018205287
255	0x3cf2454d	0.02957406

convs.1.fc_full.bias f4 [128]
0	0x3d9373e9	0.071998425
1	0x3d4f2ad0	0.05057794
2	0xbd197e88	-0.037474185
3	0xbd254190	-0.04034573
4	0xbd501f0d	-0.050810862
5	0x3d3d38b2	0.046196647
6	0xbd4b2458	-0.049595207
7	0xbd98cb1f	-0.07460617
8	0xbd81fbc0	-0.063468456
9	0x3d7f427a	0.062319256
10	0xbd3bef14	-0.0458823
11	0xba555cb9	-0.0008139122
12	0x3c6f8e4d	0.0146213295
13	0xbca5511c	-0.020180278
14	0x3c9526b9	0.018206941
15	0x3d4cb986	0.049981616
16	0xbd7975de	-0.060903423
17	0xbc9defdd	-0.019279415
18	0x3d4e417a	0.050355412
19	0x3d48ca23	0.049020898
20	0x3cc32c55	0.02382485
21	0xbd0f3c45	-0.034969587
22	0x3c35868c	0.011079442
23	0x3d4a132d	0.049334694
24	0xbd545b20	-0.051844716
25	0x3d4b70d6	0.049668156
26	0x3d69717e	0.056993
27	0x3d875635	0.066082396
28	0x3d8cc479	0.06873412
29	0xbc8e90b6	-0.017402988
30	0xbb6f3abc	-0.0036503514
31	0x3d0b4d5c	0.034009323
32	0xbb883e8c	-0.004157847
33	0x3cac4298	0.021027848
34	0x3d597142	0.053086527
35	0xbd2e9c29	-0.042629395
36	0xbd904cc8	-0.07045895
37	0x3bf88797	0.007584523
38	0xbd1dc5fd	-0.038518894
39	0x3d90ec21	0.07076288
40	0x3c23b843	0.009992662
41	0x3d3c007c	0.0458989
42	0x3d70603a	0.05868552
43	0x3bbc7aaa	0.0057519274
44	0x3ccfb34c	0.02535405
45	0x3d3a4591	0.0454765
46	0x3d49a901	0.04923344
47	0xbd1bba24	-0.038019314
48	0xbd7e5f4d	-0.062102605
49	0xbd06f5cd	-0.032949258
50	0x3d85576d	0.06510816
51	0x3d7d624e	0.06186133
52	0xbc9b75ed	-0.01897713
53	0xbd69a9ae	-0.057046585
54	0x3d1e3550	0.03862506
55	0x3cdeefa8	0.027213886
56	0xbd3f46bb	-0.046698313
57	0xbd7fb0cd	-0.06242447
58	0x3c513211	0.012768284
59	0x3d1f1760	0.03884065
60	0x3d8faedd	0.070157744
61	0x3d5a3b4a	0.0532792
62	0x3d942ac3	0.07234719
63	0x3cb09d8f	0.021559505
64	0xbd0763a0	-0.033053994
65	0xbb8f9019	-0.0043811915
66	0xbd8f7723	-0.070051454
67	0x3d55d6cb	0.052206796
68	0xbc08a83d	-0.008340892
69	0xbd0010d0	-0.031266034
70	0x3d8a227b	0.06744858
71	0x3d55d6a6	0.052206658
72	0x3d84bd15	0.06481377
73	0xbd973178	-0.07382482
74	0x3cb5db23	0.02219922
75	0xbd64f294	-0.055895403
76	0x3d856d6c	0.06515011
77	0x3d8a4f2a	0.067533806
78	0x3d8d31b5	0.068942465
79	0xbd41fb6d	-0.04735892
80	0x389c9aac	7.4674695e-05
81	0x3d9be07e	0.07611178
82	0xbd7c2a87	-0.061563995
83	0xbd83dac8	-0.064382136
84	0x3d41af5a	0.04728637
85	0x3c3d78de	0.0115644615
86	0xbd32d3a2	-0.04365886
87	0xbd01da19	-0.031702135
88	0xbd834a29	-0.06410629
89	0x3d3163e5	0.043308157
90	0xbd388016	-0.045044027
91	0x3d284a62	0.041086562
92	0x3d3f3760	0.04668367
93	0x3d7502a4	0.05981697
94	0xbc9a5f47	-0.01884426
95	0xbcaa5ead	-0.020797098
96	0x3d9aece5	0.07564715
97	0x3bcbdef2	0.0062216455
98	0xb9f23ea0	-0.00046204496
99	0x3d884911	0.06654561
100	0xbd45beb9	-0.04827759
101	0xbd8853a5	-0.06656579
102	0x3c2782f1	0.01022409
103	0x3d87ef42	0.06637432
104	0xbd00a4ce	-0.03140717
105	0xbd024540	-0.031804323
106	0xbc7819d7	-0.015142879
107	0xbd46a06c	-0.048492834
108	0xbd87ddcc	-0.06634101
109	0xbd60ad37	-0.05485269
110	0x3c76edbd	0.01507133
111	0x3d068041	0.032837156
112	0xbc7cf89c	-0.0154401325
113	0x3a5cc9d3	0.0008422408
114	0x3d84b65b	0.06480094
115	0xbd3825df	-0.04495799
116	0xbd50053c	-0.050786242
117	0x3d1117ee	0.03542321
118	0xbd886edf	-0.06661772
119	0xbb9c1b86	-0.0047640232
120	0xbd3c189c	-0.045921907
121	0x3b8228fd	0.0039721713
122	0x3c48881f	0.012239485
123	0xbc24e167	-0.010063506
124	0xbd1638e8	-0.036675364
125	0x3c9b9810	0.018993407
126	0x3a997a2c	0.0011709384
127	0xbd177f32	-0.036986537
