Codes/ML_model/Bandtype_Cgcnn/model_best.pth.tar (torch, 675095 bytes, 58 tensors)

embedding.weight f4 [64, 92]
00000000: d8fd 673d 4498 a93d 9e46 a4bd 3b19 f23c
00000010: c5c8 553d 6be1 3b3b f9e2 8fbd 5761 49bd
00000020: dc2b 9dbb 9790 413c c491 74bd 2ca8 913c
00000030: 99f2 e13c 5cba f5bc 0540 9b3d d162 923d
00000040: 2bb7 c23d 2b85 22bc ca24 90bc 3465 20bd
00000050: 1745 2cbd e5a2 bbbc 200b 8db9 3baf bcbd
00000060: 2112 a43d ec53 79bd 0fc9 e33b 30db eabc
00000070: a4f4 7ebd f9bc 62bd a7f3 a0bd dbc4 70bd
00000080: 37f3 c8bd 8c8a 41bc f6c2 35bd f67b efbc
00000090: 8ea7 063d 1607 a83d 3057 cebd a51e 8cbd
000000a0: 018b 0e3c f58f f43b 5851 ef3d f020 4c3d
000000b0: 8457 27bd d3bc 033d e941 47bb a2cb 83bd
000000c0: 5730 993c 0346 ffbc 6cf6 493d 9004 88bd
000000d0: fe88 f8bc 8b51 6dbd 173f 813c 1379 393d
000000e0: 00b8 8dbd db44 ff3d 4543 a7bd ce72 4b3d
000000f0: d195 393d d574 2d3c 80ca c1bd 9963 16bd
00000100: b72e cb3c a83a 323d e0e5 31bb 4a89 473d
00000110: b02d 00bd 70aa a23b 07a7 24bd 6447 15bd
00000120: 7a05 ddbd 3f73 03be c0af 09be 0b17 20bd
00000130: 0097 f3bc ec70 f63c d558 b43d 838d 20bd
00000140: 2999 b8bd aaba 95bc f1c8 723d 01a0 cebd
00000150: 5210 1f3d feac 9a3d 5b09 d63b 1e7d c43c
00000160: 36f9 44bd 6810 7c3d 96f8 eb3c 45b2 423d
00000170: e1fd c5bd b577 6b3d 75a8 473d 486b d5bd
00000180: 7b82 cc3d 1b9b d43d 966d 9a3d 61db 69bd
00000190: 68d2 b63d eea7 13bd 7ff9 34bd 9fbb c03d
000001a0: 8ec0 38bd 84c5 113d e389 b43d 7d16 203d
000001b0: 1f1c 413a ba5a 923d 732d be3d 4538 213c
000001c0: 02bf 3d3d 0383 7bbd 7feb 5fbd 9be2 203d
000001d0: 74f3 8cbd 202d 60bd 43e7 0dbd c2c1 4cbd
000001e0: 2ab2 c9bd fed4 1dbd b12d c9bc 5d15 7a3b
000001f0: 503a 923d bc99 da3c 66ed 683d 7db6 233d
00000200: 5633 263d 4779 5a3d 35ac cabd 9f4c 4fbd
00000210: d43f 5b3d c32d 55bd 5b74 3d3d 35e0 aebd
00000220: 1bbb e9bc 53ed a7bd 0ea4 f83c 62e0 cc3d
00000230: 7338 903c 4376 933d 54dd 92bd 7198 adbd
00000240: 9752 b53c ea2d 1f3c 6ed6 363c 29be 8cbb
00000250: 2e78 d0bb b40d 82bd d5da cebd 9ee4 973d
00000260: d8ba c9bd 1b62 fe3c c3f7 cf3c 615c ad3d
00000270: b55a 8f3d 80a9 54bd 12ba bcbd 4835 c0bd
00000280: 2fca 803d 8516 ba3d b9da 403d 3158 c8bd
00000290: a02e 1cbc d697 b43d 40b2 4ebd 1751 88bd
000002a0: b565 9e3d a9db c7bc 09c5 b3bd 1d81 c93c
000002b0: 855d fb3c 49d1 9bbd a4ea 98bd 7b6d 80bd
000002c0: 4706 333d f09d 20bc 24ae cb3c 82ae b0bc
000002d0: 5480 e23d 2e76 2ebd ac97 083d 88bc cd3c
000002e0: 4652 373d c630 cd3c 619f d8bd 3aeb 073d
000002f0: 5bbd cb3c b735 8c3d 8fbd fa3c e951 f8bc
00000300: fec8 9c3d a16b 683d 57b3 c13b b63b 6d3d
00000310: fd8f 843d d66f 97bd ad6b 163e cd05 db3d
00000320: 2f82 833d d9c5 aebd c050 c13d aff5 a6bd
00000330: 838a 473d de97 2c3d a8b1 cb3d b626 8dbd
00000340: a05b c03d 2cf9 df3d 1f7f 21bb 16bc 353d
00000350: ba0f 4d3a 31c5 4ebd 7bde 77bc 95aa 823c
00000360: 0c88 7fbd 49c8 53bd d560 323d 363a 6dbd
00000370: fb9e 933c a999 f1bd 36b5 303c 7e4c bdbd
00000380: f5c0 fdbd d2ea ec3d 728e c6bd f5bb 11bd
00000390: 15bf ca3b a369 803d afac 0bbd 5363 27bd
000003a0: 29a8 a13d 6955 2c3d d2f1 743d c9a7 66bd
000003b0: 8419 c13d 4116 7bbd 9aa9 cfbd 2ac1 183d
000003c0: a0cb a3bd 6865 27bd 0cea 383c 6d56 7d3c
000003d0: e5d6 b8bd f120 003d b6fb 3bbc a9be 3d3d
000003e0: bac2 c13d c113 62bd fdf8 c63d 60c1 3bbc
000003f0: c174 bb3d b3c6 b03d 9ac2 8c3d e847 b0bd
0.05663857 0.082809955 -0.08021282 0.029553046 0.052193422 0.0028668295 -0.070257135 -0.049165096
-0.004796488 0.011814258 -0.059709325 0.017780386 0.0275815 -0.02999609 0.0758057 0.07147754
0.09507593 -0.009919445 -0.017595667 -0.039159015 -0.042058077 -0.022904823 -0.00026901904 -0.0921311
0.0801127 -0.06087105 0.0069514583 -0.02866897 -0.062245026 -0.055356 -0.07858973 -0.058781486
-0.098120145 -0.011812817 -0.044375382 -0.029233914 0.032874636 0.082044765 -0.100752234 -0.068417825
0.008700133 0.00746345 0.11685437 0.0498361 -0.040854946 0.0321625 -0.0030404276 -0.06435324
0.018699808 -0.031161314 0.04930727 -0.06641495 -0.03033876 -0.057939094 0.015777154 0.04528148
-0.06919861 0.12464305 -0.081671275 0.049670033 0.04530889 0.010586937 -0.09462452 -0.036716077
0.024802549 0.04351297 -0.0027145073 0.048714913 -0.03129357 0.0049641654 -0.040198352 -0.036445037
-0.1079206 -0.12836932 -0.1344595 -0.039084475 -0.029735088 0.030083142 0.08806006 -0.039197456
-0.09013588 -0.018277485 0.059273664 -0.10089112 0.038833924 0.07552527 0.006531877 0.023985442
-0.04808923 0.061539084 0.028805058 0.047533292 -0.09667564 0.05748721 0.048744638 -0.10420853
0.09985825 0.103811465 0.07540433 -0.05709398 0.089268506 -0.036048822 -0.04418325 0.09410786
-0.04510551 0.035588756 0.08815362 0.039083946 0.0007366556 0.07146211 0.092860125 0.009840076
0.046324737 -0.06140424 -0.054667946 0.039278608 -0.068823725 -0.054730535 -0.034644376 -0.04998947
-0.09848435 -0.038533203 -0.02455792 0.0038159706 0.071400285 0.026684634 0.056867026 0.039968956
0.0405763 0.053338315 -0.09896127 -0.05061018 0.053527668 -0.052045595 0.046253543 -0.08538858
-0.028531602 -0.08199563 0.030351665 0.10003735 0.017605042 0.07200291 -0.07171121 -0.084763415
0.022134108 0.009715537 0.011159522 -0.00429513 -0.006361983 -0.0635027 -0.10100333 0.07416652
-0.09850091 0.03105264 0.025386697 0.084648855 0.06999723 -0.05191946 -0.092151776 -0.093851626
0.062885635 0.090863265 0.04708359 -0.09782446 -0.009532601 0.08818023 -0.05046296 -0.06656092
0.07734243 -0.024396734 -0.08777816 0.024597699 0.030684242 -0.07608277 -0.07466629 -0.06270882
0.04370716 -0.00980328 0.02486331 -0.021567587 0.11059633 -0.042593174 0.03334777 0.025114313
0.044756196 0.025047671 -0.10577274 0.033183314 0.024870565 0.06846183 0.030607967 -0.030312495
0.07655524 0.056743268 0.0059112716 0.057918273 0.06472776 -0.07394378 0.14689513 0.10694466
0.06421315 -0.0853383 0.0943923 -0.08152329 0.04871608 0.04213702 0.099459946 -0.06892149
0.09392476 0.10936198 -0.002464242 0.044368826 0.0007822473 -0.050481025 -0.015128727 0.01595048
-0.062385604 -0.05170468 0.043549377 -0.057916842 0.018020144 -0.117968865 0.010785392 -0.09243105
-0.12390319 0.11568226 -0.09695138 -0.03557964 0.0061873295 0.062701486 -0.03410023 -0.040866207
0.07893402 0.04207364 0.05980093 -0.056312356 0.09428695 -0.06130052 -0.10139771 0.03729359
-0.07997823 -0.040868193 0.01128627 0.0154625 -0.09025363 0.031281415 -0.011473587 0.046324406
0.09460969 -0.05519462 0.097154595 -0.011459678 0.091531284 0.08631649 0.06873055 -0.08607465

embedding.bias f4 [64]
00000000: db73 b33c 9a69 5ebd eed7 b4bd 5c4f 1abd
00000010: 07f1 a13c f920 d4ba 0b6b d9bd 1084 a13d
00000020: 64de c7bd e255 1d3d 578f e0bd b70c b73d
00000030: f9b4 d3bc cd8b 723d c9e7 ad3d 7de6 c4bd
00000040: f235 bfbd 6152 debc 37b4 9b3d e191 553d
00000050: e143 073c e2b9 57bd 336a 333d 6633 4abd
00000060: df22 6c3d 4713 e4bd 7909 1cbc 8af0 63bd
00000070: 6e98 a63c b210 e8bd 84e3 97bd 8850 aabd
00000080: 5347 aebd 3ebf f6bd 4fc4 c8bd a654 4dbd
00000090: 0f2e 81bd db98 1abd 8e50 e7bb 5085 a8bd
000000a0: 20f2 63bd fbab 39bd 6aa4 5b3d 43dd 4abc
000000b0: be4e 933d 08f8 a13d 9c9f ae3d eb73 84bd
000000c0: 2cf6 de3c ae28 7f3d 4013 73bd ace9 c1bb
000000d0: 4f3a 003d 8a9a c4bd dd3e a5bd 839a 3c3d
000000e0: 239e 953d d25c 13bd 7c14 bebd 3ce9 c53d
000000f0: 8d8e 873d 1973 8abd cbfe ad3d 1ab6 f0bb
0.02190583 -0.05429993 -0.08830248 -0.03767334 0.019768251 -0.0016184143 -0.1061612 0.07886517
-0.097592145 0.038411982 -0.1096484 0.08937972 -0.02584313 0.059215356 0.08491475 -0.09614275
-0.09336461 -0.02713889 0.07602733 0.052141074 0.00825593 -0.052667506 0.04380245 -0.049365424
0.057650443 -0.11136489 -0.009523743 -0.055649318 0.020336356 -0.113313094 -0.07416442 -0.08316141
-0.08509698 -0.12048195 -0.09803068 -0.050129555 -0.06307613 -0.03774343 -0.0070591634 -0.08228552
-0.05565083 -0.04533003 0.053623594 -0.0123818545 0.07192753 0.07908636 0.08526537 -0.06467422
0.027216993 0.062294655 -0.05934453 -0.0059177484 0.031305607 -0.095997885 -0.08068631 0.04604579
0.07305553 -0.035977192 -0.09281251 0.096636266 0.06618986 -0.067602344 0.084958635 -0.007345927

convs.0.fc_full.weight f4 [128, 169]
00000000: c8ae a33c 0263 8fbd 7f09 47bd 4c83 5dbd
00000010: a45e be3c 7781 c8bd ad73 4bbd 6966 1e3d
00000020: 53b6 84bd 4f52 2c3d a4c4 fbbc 6a25 68bc
00000030: 77da 183d 6bce 163d 8c26 edbb a418 343d
00000040: 4785 343c 33d1 58bb 04d7 893d f93a 963c
00000050: c5dd 03bc d6d7 d33c 1283 813d c718 18bd
00000060: c8d9 163d 0d9d 02bd 663f 57bd 4e14 4f3c
00000070: 32c3 123c 5785 003c 9ee6 873d 05ce 21bd
00000080: aeb1 b13c 3918 593d 3b7f 38bd 990e 8bbd
00000090: 15f2 dd3c a0d6 e6ba 1209 623d 9585 f53c
000000a0: 2707 9abd aae7 d63c 160e 723d 58d5 38bb
000000b0: 66a8 c2bc c644 513d 629a 0bbc 98e6 69bd
000000c0: 1c1f 6ebd 2a6e 95bc 7441 21bd 46f3 3e3d
000000d0: 0cd8 0b3d b62f 9bbd 37ef a7bd b375 353d
000000e0: 0dd0 313d c420 7e3d f660 1e3c 9321 4abd
000000f0: 3e3e c33b b176 53bd 81f2 b7bd d4d8 3ebd
00000100: 7793 f93c 3647 10bd 0ab5 5a3d e2d8 633d
00000110: be7b 87bc 5414 503c e3ea 11bd f99f a9bc
00000120: d192 973c fcb7 81bd e270 23bd bd2c 0e3d
00000130: c8db ccbc 291d 29bd 03a7 dcbc 6902 d83b
00000140: f17a 22bd 0385 c1bd aa60 7ebd d558 28bd
00000150: 1a80 19bc f24b d53c 0ff1 973c a993 81bd
00000160: 7122 05bd 9f15 81bd 0c67 3dbd b1ab 673d
00000170: fbb0 a5bc 0aea e9bc d4af babc 65c6 0b3c
00000180: 5cea 95bd cfdd 65bd 82ab aebd 10a5 6c3d
00000190: 1589 743d 4569 74bd b552 91bc d19d f4bb
000001a0: 08b2 933d 09f9 55bd 5780 15bd bad4 d33c
000001b0: 9980 55bb e05e 4dbc 0040 833d 4119 85bc
000001c0: daf2 06bd 051a dd3c 6e36 a03c 7a6a 02bd
000001d0: 117c f13c d3f4 63bc 9446 723d 01e5 dd3c
000001e0: e787 83bc 27e5 96bc 381f 2cbd 7564 e0bc
000001f0: b14c d5bc 5fce 8b3d 2b4c 153d da64 383d
00000200: 26cc 0b3d 921e 1b3d 5c44 9abd c65c 6a3d
00000210: 2e66 2b3d 68d8 6e3d 4ef3 75bd b6a0 14bc
00000220: 513f a8bd 88e1 f43c 6437 0b3c 9518 a5bd
00000230: d847 063c a513 23bc 071c 9f3d 1638 d83c
00000240: 461d a73d 7943 403b e542 973b a728 a3bd
00000250: 4baa 59bd 177f 8ebd 4af6 28bd d671 023d
00000260: 25e3 f1bb 3aff c23d 6437 c5bc b350 e03b
00000270: 2f97 eebc 8b8c 92bd 2a36 953d 31db 9bbb
00000280: 2cb0 87bd 93cb 3dbd 7a73 1d3b 274b f4bc
00000290: 1e7c 13bd 1d7e 3dbd 3015 4bbd 3732 9a3d
000002a0: d8ec 8a3c f7a5 b8bc 476b 73bd d920 d73c
000002b0: f8c3 44bd a5ae 8dbd dd83 cbbc 1256 09bd
000002c0: a505 2dbd 8d92 8b3d 4087 9c3a f0dd ad3c
000002d0: 5bf1 d43c a2b7 5f3d 33aa 943d b50b 63bd
000002e0: 20ef 92bd 41f7 eb3c 2f12 4f3d b957 97bd
000002f0: e28b 36bd 897f 8c3c 87ed 853d 43a0 f2bc
00000300: 38e1 7a3d 532d 8bbd 01af 0ebc 2f76 823d
00000310: 4760 5e3d 69ab bcb9 e730 8c3d 51b9 59bd
00000320: c754 48bd 2f4f 6bbd 9046 7fbb 2d70 2dbd
00000330: df68 a53d 6122 c4bc 87a3 8dbc da2d 89bd
00000340: b2c1 b13d 5a85 673c 48b0 043d 7ddd 72bc
00000350: f9c1 ed3c 0a5c 433c 0a14 373d 9b1b bcbc
00000360: 1d88 c6bb 5e28 9abb dec2 98bc a050 743d
00000370: 74cc 55bd ca20 e6bc 1f56 4cbc a43c 43bd
00000380: 2197 673c fe89 84bd d8da b53c 43ab 673d
00000390: b097 c638 5b80 04bc 647d a53d 4500 b43c
000003a0: 368c 753d 493b 9dbd 6da4 81bd 3f79 423d
000003b0: 1559 16bd ae40 393d 704b dabc 1103 4f3d
000003c0: 66b1 27bd 62c6 b9bc a3d2 5f3d aa9c 06bd
000003d0: aa74 dd3b daae 19bd 9420 10bd b9ec 9ebd
000003e0: ec4d 6abd f381 453d f5eb d1bc ac4f 8b3d
000003f0: 29ef e53c ef0e 95bd 3dea abbc 6229 8bbc
0.019980803 -0.07001306 -0.04859304 -0.054080293 0.023238488 -0.097903185 -0.049670864 0.038671885
-0.06480088 0.042070683 -0.030733414 -0.014169076 0.03731772 0.03681795 -0.007237261 0.04396881
0.011018104 -0.0033083677 0.06730464 0.018338667 -0.008048479 0.025859755 0.06323828 -0.037133005
0.036828786 -0.031888057 -0.052550696 0.012639118 0.008957671 0.007844291 0.066357836 -0.039503116
0.02169117 0.053001616 -0.04504321 -0.06789894 0.027092973 -0.0017611571 0.05518443 0.029970923
-0.075208955 0.026233513 0.059095465 -0.0028203335 -0.02376194 0.051090978 -0.008520694 -0.057104677
-0.058135137 -0.018241007 -0.03936906 0.046618722 0.034141585 -0.075774595 -0.081999235 0.0443017
0.043411303 0.062042966 0.009666672 -0.049348425 0.0059583476 -0.051626865 -0.08981801 -0.046593502
0.030465825 -0.035224162 0.05339531 0.055626757 -0.016538497 0.012700159 -0.035624396 -0.020706164
0.018502625 -0.0633392 -0.039902575 0.034710634 -0.025007144 -0.041287575 -0.026935106 0.006592084
-0.039668027 -0.09449198 -0.062103905 -0.04110034 -0.009368921 0.02603719 0.018547563 -0.06326992
-0.03250355 -0.06302952 -0.04624085 0.056560222 -0.020225992 -0.028553981 -0.02278892 0.008531188
-0.07320091 -0.056119736 -0.08528806 0.057774603 0.059701044 -0.059670705 -0.017739633 -0.0074651022
0.07211691 -0.05223945 -0.036499348 0.025858272 -0.003257787 -0.012534827 0.064086914 -0.016247394
-0.032946445 0.026989946 0.019557204 -0.031839825 0.029478105 -0.013913351 0.05914934 0.027086737
-0.016056014 -0.018419815 -0.04202196 -0.027391652 -0.026037546 0.068264715 0.036449593 0.045018055
0.034130238 0.03787095 -0.0753257 0.057217382 0.041845493 0.05831185 -0.060046487 -0.00907152
-0.08215202 0.029892698 0.008497093 -0.08061329 0.00819584 -0.009953414 0.07769018 0.026393931
0.0815988 0.0029337092 0.0046161287 -0.07966738 -0.05314092 -0.06957834 -0.041250505 0.031846844
-0.007381814 0.09521337 -0.024074264 0.0068455576 -0.029124824 -0.07155713 0.072857216 -0.0047563543
-0.06625399 -0.04633672 0.0024025128 -0.029820992 -0.03600704 -0.04626285 -0.049580753 0.07529109
0.016958639 -0.022540076 -0.05942848 0.02626078 -0.048038453 -0.069180764 -0.02484315 -0.03352935
-0.04224171 0.06815062 0.0011942163 0.021223992 0.025993994 0.054618485 0.072590254 -0.055431087
-0.07174516 0.028804423 0.05055445 -0.07389779 -0.044566996 0.017150657 0.06539445 -0.029617434
0.06124994 -0.06795754 -0.008708716 0.06370198 0.054291036 -0.00035985865 0.06845265 -0.053155247
-0.048908975 -0.057448562 -0.003895197 -0.042343307 0.08076643 -0.023942174 -0.01728989 -0.066981986
0.086795226 0.014130915 0.032394677 -0.014823315 0.029023157 0.011923799 0.044696845 -0.022962382
-0.0060587064 -0.004704519 -0.018647607 0.059647202 -0.052196935 -0.028091807 -0.012471705 -0.047665253
0.014135153 -0.064716324 0.02219908 0.056559812 9.46963e-05 -0.008087243 0.08080557 0.021972785
0.05994817 -0.07677323 -0.0633019 0.04747891 -0.03670605 0.0452277 -0.0266473 0.050540034
-0.040940665 -0.022677604 0.05464424 -0.03286425 0.006758292 -0.037520267 -0.03518732 -0.07759995
-0.05720322 0.048219632 -0.025625208 0.068023056 0.028068142 -0.07278239 -0.020985717 -0.016987506

convs.0.fc_full.bias f4 [128]
00000000: a0e1 3a3d 0e38 8c3d bdd3 8d3d c782 8c3d
00000010: 3240 97bd 16f0 52bc 4592 873d 7f6f 923d
00000020: a12d 88bc ae38 88bd 907d 63bd d0fd c83c
00000030: 0cdb b2bc c38a b53c 1736 5a3d 210a c1bc
00000040: d2cd f6bb b566 6ebd a221 623b 15cb 6a3d
00000050: 66df 893c 0c3f 7f3d 8418 e33b 7c80 f53c
00000060: 1d03 0ebd 0265 31bc 7c90 283d a453 373d
00000070: a983 5dbd a345 713d 1524 4a3d 719a 7f3d
00000080: e8fd a9bc 23db 993d 2d51 5a3d 4826 903d
00000090: fd33 d9bc 51b0 92bd 06c6 02bb c14c 793d
000000a0: 891c f9bc 93ce 163c fbe3 7c3c 8092 f4bc
000000b0: c6ab 8fbc 1ac8 c43c 0d10 123c 253e 933d
000000c0: fbcc 0fbd d361 0e3c 4d34 55bd c0b9 423d
000000d0: 5b6f 60bd 33e5 1bbd 6eff 58bb 6e11 9cbd
000000e0: 6b42 98bd 768a 5bbc 718f 78bd a179 04bd
000000f0: 05af 30bd a185 153c 0a92 4cbd 1591 123d
00000100: 088e 573d da04 84bd ee74 51bd 687d 763d
00000110: a1b5 3abd 59d6 a9bc 4f2e 103d e8ca 3cbc
00000120: a486 9abd 9a9e 99bd 5a64 883d 1c07 f6bb
00000130: cd3d 09bd 32f7 993d 342f b53c 9ab1 66bd
00000140: 634d db3c ae37 5c3d 1d17 88bd 7c4e 49bd
00000150: c487 863d ec07 3e3b 83ad 193d 99d2 403d
00000160: 9ee4 1f3d 3a81 463d 91ea 46bc e382 3dbb
00000170: b230 f2bc 4403 8fbb ccba 41bd 541a 813c
00000180: c781 f03c 3630 cebb 7869 4fbd 56cf 383d
00000190: 091a 653d a5b8 61bc 475d f2bc d156 dfbc
000001a0: cf9c 393c cc2e 2fbd 1dbb 863c 2b3f c43b
000001b0: a6fe bf3b fdee 3f3d 21c8 1fbd 42fc 52bd
000001c0: fa4c b4bb 12e0 fdbb 851d 7e3d be81 bbbc
000001d0: ac91 d43c 7664 95bd f9dd 96bd 0e17 323d
000001e0: 4a06 9dbd 1bd2 3bbd 3a01 4c3d 8cb5 5b3d
000001f0: 7075 57bd 6481 db3c 84f1 953d 08b3 9c3d
0.04562533 0.06846629 0.069251515 0.06860881 -0.07385291 -0.012874624 0.066196956 0.071501724
-0.01662332 -0.06651436 -0.055539668 0.02453509 -0.021832965 0.022160893 0.05327424 -0.0235644
-0.00753186 -0.058203418 0.003450491 0.05732258 0.016830157 0.062315986 0.0069304127 0.029968493
-0.034670938 -0.010827305 0.041153416 0.0447575 -0.05408064 0.0589043 0.049350817 0.062403146
-0.020750955 0.075125 0.05330007 0.070385516 -0.026514048 -0.07162536 -0.0019954457 0.060864214
-0.030409114 0.009204525 0.015435214 -0.029855013 -0.017537963 0.024021197 0.00891496 0.071895875
-0.035107594 0.008690315 -0.05205183 0.047540426 -0.054793697 -0.03806038 -0.0033111232 -0.07620512
-0.07434543 -0.013399711 -0.06068367 -0.032342557 -0.04313566 0.009126098 -0.04994396 0.035782892
0.052625686 -0.06446238 -0.051136903 0.06017819 -0.04558337 -0.020732092 0.035200413 -0.011522986
-0.07545212 -0.07500954 0.066597655 -0.0075081717 -0.033506203 0.07517852 0.022117235 -0.056321718
0.0267703 0.053764038 -0.066450335 -0.049147114 0.06568864 0.002899642 0.03751899 0.04707584
0.039036386 0.048463084 -0.012140886 -0.0028917126 -0.029564235 -0.004364403 -0.047297284 0.015759625
0.029358758 -0.0062923683 -0.050637692 0.045119606 0.055933032 -0.013776933 -0.029585494 -0.027263077
0.01132889 -0.04276924 0.016446644 0.0059889755 0.005859214 0.046858776 -0.039009217 -0.051510103
-0.0055023404 -0.0077476585 0.06203987 -0.022889014 0.025948368 -0.07294552 -0.07366557 0.043479018
-0.07667215 -0.04585467 0.049805857 0.053639933 -0.05260223 0.026795097 0.07321456 0.07651335

convs.0.bn1.weight f4 [128]
00000000: bd92 813f f4f1 803f c994 803f 222a 823f
00000010: ebf4 803f ee6a 803f c14a 813f 14ae 803f
00000020: 5c35 823f 422f 813f 0151 823f 4bf8 803f
00000030: 0677 803f fca0 823f 2cea 823f 66f3 803f
00000040: 4edb 813f aeae 813f 2fac 833f de76 813f
00000050: 2b77 823f b49e 813f a2c4 803f 8136 803f
00000060: b46c 813f 8bbb 813f ea90 813f ec32 813f
00000070: 5c3a 813f 05c4 813f c655 823f 627b 803f
00000080: ce3e 803f ca8e 823f 9297 823f f27c 813f
00000090: aa6e 823f 44d5 813f 56d0 813f c012 813f
000000a0: f945 803f 6e7f 813f 8445 803f 9e54 803f
000000b0: fdd1 803f 25af 803f 3214 813f f027 833f
000000c0: 4cbf 813f 10f4 823f 60c6 803f 7650 813f
000000d0: ce65 803f 5ca5 7d3f b35d 813f d07f 813f
000000e0: 74b7 803f 3a73 813f 163a 803f 52af 813f
000000f0: ce09 823f 94f7 7f3f 2c95 833f 0426 823f
00000100: 7ef3 803f 75b6 803f 1740 813f 8b51 823f
00000110: 08e1 803f 7e6c 7f3f c81b 803f eaa9 803f
00000120: 0fe5 7f3f 5b86 803f 604d 803f 4a5b 803f
00000130: 012d 803f 0389 803f 3e13 823f 5847 813f
00000140: e258 813f 12bd 813f 7967 813f a856 813f
00000150: cec8 803f 30c8 813f b2ca 803f 3494 813f
00000160: 3fa1 803f ad28 803f 56d9 803f 03cb 803f
00000170: 4294 803f f605 813f c139 7f3f 8dc3 7f3f
00000180: 3313 813f 561a 823f 4413 813f de8f 7f3f
00000190: 0e42 823f 696d 803f 2822 823f 8292 803f
000001a0: 8921 813f 9bce 813f 4b4a 803f 57d6 803f
000001b0: 9423 803f 3daa 813f aa8c 803f 7400 813f
000001c0: 6014 813f 4819 833f 3429 833f 7a38 813f
000001d0: 3661 803f 8bdd 803f fe2a 823f 4650 803f
000001e0: fc63 803f 24fd 803f 837a 803f c52a 823f
000001f0: 1f7d 803f 5b38 803f c5c1 803f 0497 813f
1.0122906 1.0073838 1.0045406 1.0169108 1.0074743 1.0032632 1.0100938 1.0053124
1.0172534 1.0092547 1.018097 1.0075773 1.0036323 1.0205379 1.0227714 1.0074279
1.0145051 1.0131433 1.0286921 1.01144 1.0192617 1.0126557 1.0060008 1.0016633
1.0111299 1.0135359 1.0122349 1.0093665 1.0095935 1.0137945 1.0182426 1.0037653
1.0019166 1.0199826 1.0202506 1.0116255 1.0190022 1.0143209 1.0141704 1.0083847
1.0021354 1.0117013 1.0021214 1.0025823 1.0064083 1.005345 1.0084288 1.0246563
1.0136504 1.0230732 1.0060539 1.010268 1.0031068 0.99080443 1.010672 1.011713
1.0055985 1.0113289 1.0017726 1.0131629 1.0159242 0.9998715 1.0279899 1.0167851
1.0074308 1.0055681 1.0097684 1.0181135 1.0068674 0.9977492 1.0008478 1.0051854
0.9995889 1.0041002 1.0023613 1.0027859 1.0013734 1.0041813 1.0162122 1.0099897
1.010525 1.0135825 1.0109702 1.010457 1.0061281 1.0139217 1.0061858 1.0123353
1.0049208 1.0012413 1.0066326 1.0061954 1.0045245 1.0079944 0.996975 0.9990776
1.0083984 1.0164287 1.0084004 0.998289 1.0176408 1.0033389 1.0166674 1.0044711
1.0088359 1.0141176 1.0022672 1.0065411 1.0010858 1.0130078 1.0042927 1.0078263
1.0084343 1.024209 1.0246949 1.009536 1.0029666 1.006761 1.016937 1.0024498
1.0030513 1.0077252 1.0037388 1.0169302 1.0038184 1.0017198 1.0059134 1.0124211

convs.0.bn1.bias f4 [128]
00000000: c988 10bc cec6 55bb 447d 39b9 db6a e9bb
00000010: 0731 f6bb b10f dc3a de77 87bb 5e0c 7b3a
00000020: 4a1c 12bc e609 06bc 69fa 85bb e577 87bb
00000030: 20b3 69bb e153 d0bb c346 4bbc 1ae5 33b8
00000040: a20d 1dba 77de cbbb 7b72 a6bb 96ce 43bb
00000050: a68d 9239 b77b 8abb 2be6 4c3a e916 983a
00000060: 1919 21bb 0487 c9bb 0766 b4bb eaf3 4ebb
00000070: 1b8d 16bc 730c f1bb 87ae e2bb e2e3 eb38
00000080: 9398 ddba a36d adbb 1a0d 08bc c0c2 d9bb
00000090: 537b a0ba 97a2 1cbc 9ed2 6cbb 0702 4dbb
000000a0: 778f 50b9 d750 a2bb 363c 16bb f573 153a
000000b0: 401a 2e39 2adf 0cbb d285 c9ba ef7a 48bc
000000c0: e29c cfbb 76b6 a7bb 247e 3f39 9a24 76bb
000000d0: 9aaa 1abb a024 973b b8a7 81bc 7281 f5b9
000000e0: 3767 9f3a ee5f c0bb 357f d838 3cef ebbb
000000f0: 5db1 0dbb a503 4e3b ca33 babb eefb 59ba
00000100: 7ea5 cbbb ec19 c6bb 8e9d 77bb f8f2 09bc
00000110: 4b32 8dbb 19cf ec3a 95a0 e1b9 e5e7 6e39
00000120: cefb 8bba d659 3bbb a636 e3bb 52ee 2abb
00000130: 13fc a0ba c6bb 32bb a996 fcbb c13c 88bb
00000140: 9232 dabb aa92 bbbb 8f30 f4bb 7181 9cbb
00000150: 62a9 36bb 6b19 f0bb 74d9 33bb b585 b4bb
00000160: e5df 86bb d9ea 17bb 4982 80bb 8348 20bb
00000170: 0786 8dbb 653e e0bb 5a36 84b9 e524 2d3b
00000180: 0549 e9ba fb2e 2bbc 6581 a5bb 1962 6eba
00000190: 4b85 23bc f413 a3bb b298 edbb 0813 e9ba
000001a0: c93a a4bb b69c e5bb d1e8 81ba e059 ddba
000001b0: 61b7 a2ba 4c23 9fbb fa2f 27bb f973 f1bb
000001c0: 2250 53bb 063e 9abc b79a 09bc 5d23 b7bb
000001d0: 16e1 61bb 3883 95ba 51d3 65bc 078e c3ba
000001e0: 44ad 433a 72ed 82bb 80bf 2aba 822f 18bc
000001f0: a3fe 5cbb d373 893a 52bd a5bb 1f5b b4bb
-0.008821675 -0.0032619718 -0.0001768964 -0.007123334 -0.0075131687 0.0016789344 -0.0041341623 0.0009576733
-0.008917877 -0.008181071 -0.004088689 -0.0041341656 -0.0035659745 -0.0063576554 -0.012407008 -4.2890293e-05
-0.0005991106 -0.0062215882 -0.005079565 -0.0029877773 0.00027952826 -0.0042261737 0.000781628 0.0011603507
-0.002458161 -0.0061501283 -0.0055053267 -0.003157849 -0.009188916 -0.0073562204 -0.006917778 0.0001124812
-0.0016906433 -0.0052926107 -0.008303905 -0.0066455305 -0.0012243785 -0.009560249 -0.003613628 -0.0031281726
-0.0001988987 -0.0049534845 -0.0022924072 0.0005701178 0.00016603712 -0.002149532 -0.0015374965 -0.012236341
-0.0063358406 -0.0051181866 0.0001826217 -0.0037558437 -0.0023600222 0.0046125203 -0.015827045 -0.00046826486
0.0012161498 -0.0058708107 0.00010323377 -0.00720015 -0.002162061 0.0031435278 -0.0056824433 -0.00083154335
-0.0062147966 -0.0060455706 -0.003778312 -0.008419745 -0.004308974 0.0018067091 -0.00043034987 0.00022783836
-0.0010679902 -0.0028587482 -0.006934005 -0.0026081991 -0.0012282155 -0.0027272566 -0.00770839 -0.004157633
-0.0066588605 -0.005724271 -0.0074520777 -0.004776173 -0.0027871956 -0.007327249 -0.0027442845 -0.005509103
-0.004116046 -0.0023180752 -0.003921781 -0.0024457283 -0.004318956 -0.0068433755 -0.00025217497 0.0026419696
-0.0017798251 -0.010448213 -0.0050508254 -0.0009093597 -0.00998051 -0.004976744 -0.0072508687 -0.0017782161
-0.0050118905 -0.007007207 -0.0009911304 -0.0016887747 -0.001241427 -0.0048565026 -0.0025510774 -0.0073685613
-0.0032243808 -0.018828403 -0.008398703 -0.0055889324 -0.0034466437 -0.0011406904 -0.014027433 -0.0014919647
0.0007464478 -0.003995591 -0.0006513521 -0.0092886705 -0.0033721111 0.0010486789 -0.005057969 -0.0055040265

convs.0.bn1.running_mean f4 [128]
00000000: 063f 193e 2af8 cfbc 35dc 00bc ca1d 133e
00000010: e86e 113b 1324 bfbd b199 ef3d e5bc 173e
00000020: 5a85 93bd f723 ccbd b306 0fbe 74be 113e
00000030: 5356 6ebd 62e3 093d 52a2 b13c 3507 afbc
00000040: bf52 3ebd 32c4 fbbd c4ae 89bd b4d4 08bd
00000050: e954 283d 6695 733d 0e2f 3bbe 6198 4d3d
00000060: 09f5 a73d 1e0b e0bd c33f 633a b634 8d3c
00000070: bda2 94bd e674 08bb 58c6 f43d e4c6 c53d
00000080: 099c 87bd 488c 103e 80a6 d73b 7ecd 233e
00000090: 01cc 27be 9e9f 10be 95a8 4b3c 7908 7a3d
000000a0: cbd2 8c3c f212 163d 5354 873d 93d5 13bd
000000b0: 3f55 e5bc 339d 263c 5e43 c83c 7a79 993d
000000c0: ef70 7e3c cf98 d3bd d7d5 b0bc 8ccc 9a3d
000000d0: 8815 b33c c147 07be 790f 34bd 3f8d c6bc
000000e0: 2c34 53be 84fa 663d f18e 1cbe 6439 66bd
000000f0: 670a 5f3b bddf e23c 96dd cbbd b5cc a53d
00000100: 5be9 1f3e df90 19be d94c ca3c 4aa4 a63d
00000110: 2ed6 afbd 27ec fdbd e856 cd3c 691a d6bd
00000120: cd41 4cbe 5be8 cebd 04e4 15be 98cb ff3b
00000130: 00a8 2ebd cfc4 683d c817 14be b82f 18be
00000140: 70ba 10be 31f9 ac3d 0e52 1bbe 0a63 cebd
00000150: ec68 2ebd 46f9 36bd 481d 983d d1e6 223d
00000160: 7501 fa3c 6654 fb3d 17b2 d23c 5b23 d43b
00000170: bd0f 44bd c96f 9a3d 3b6b bcbd a584 80bd
00000180: 5b7e bc3c 7d8a debd 11ff 973d 9dd7 eb3d
00000190: 523e b1bd 65f4 25bd 4998 ebbc 71c5 8f3d
000001a0: b971 ef3b 6be1 28bd a7d2 233c fabf b23d
000001b0: e2dd 213c 94a2 f83d 998c 5bbe 7df4 2aba
000001c0: c6f5 abbd ad78 27be f1f7 983d 414e 82bd
000001d0: 8e87 363b 4c5e 8bbb 3cb0 e9bd 3965 ed3d
000001e0: 6d1b 5d3c f7e0 81bd d593 fa3d d033 6a3d
000001f0: 9b46 18bd 8658 17bc 9c49 633d d645 c63d
0.14965448 -0.025386889 -0.007865001 0.14366832 0.002219135 -0.093330525 0.11699236 0.14818151
-0.07203169 -0.09967797 -0.139674 0.14232808 -0.058187794 0.033664115 0.021683846 -0.021365741
-0.04646563 -0.12293281 -0.06722787 -0.033405975 0.0410966 0.05946865 -0.18279669 0.050194148
0.082010336 -0.109396204 0.0008668864 0.017237049 -0.07257602 -0.002082163 0.119518936 0.09657076
-0.06621558 0.14116013 0.0065811276 0.15996358 -0.16386415 -0.14123389 0.01243033 0.061043236
0.017190358 0.03663916 0.066078804 -0.036092352 -0.02799475 0.010169315 0.024446186 0.07493873
0.015529855 -0.1033188 -0.021586342 0.075585455 0.021860853 -0.13210966 -0.04396007 -0.024237273
-0.2062537 0.056391254 -0.15288903 -0.056207076 0.00340333 0.027694577 -0.099543735 0.080956854
0.15616362 -0.1499667 0.024694847 0.081368044 -0.085857734 -0.12398558 0.025065854 -0.10454256
-0.19946976 -0.10102912 -0.14637762 0.0078062527 -0.042640686 0.056828316 -0.14462197 -0.14861953
-0.1413362 0.08445967 -0.1516802 -0.10077484 -0.04258053 -0.04467132 0.0742746 0.039770905
0.030518273 0.12271957 0.025719685 0.0064739413 -0.04786657 0.075408526 -0.0920014 -0.062753
0.02300947 -0.10866258 0.07421697 0.11515734 -0.08654465 -0.040516276 -0.028759139 0.07020081
0.007307258 -0.0412306 0.009998954 0.08728023 0.009879561 0.12140384 -0.21440352 -0.0006521417
-0.08396487 -0.16354628 0.07469166 -0.06362582 0.0027851793 -0.0042531844 -0.11410567 0.11591572
0.013495308 -0.06341737 0.12235228 0.05717832 -0.03717671 -0.009237414 0.05549012 0.09681289

convs.0.bn1.running_var f4 [128]
00000000: ef11 123c 7896 4b3c 742d 363c ebef 353c
00000010: 7b80 023c 480f 013c c477 2a3c ffc2 e23b
00000020: b263 163c e2fa 253c 2365 0b3c b22f c93b
00000030: 79a4 133c 04b1 243c 7ea6 8d3c 89fd 2c3c
00000040: d74a 1b3c 8ae3 573c 87b1 4e3c 0903 ec3b
00000050: 7564 163c c79f 173c 13e4 213c 06bc 063c
00000060: 94cd 1b3c f9ac 2a3c 5ed6 1f3c 1bc2 133c
00000070: 11bb 173c a12e f93b bcfa 3f3c c5de 143c
00000080: 54d5 333c 0be5 213c df65 193c 190c 7c3c
00000090: e26a 523c c4af 3e3c ece2 343c 9f10 1c3c
000000a0: 1243 093c 79c3 043c 52c9 f03b 94db 0a3c
000000b0: f2ee 493c 951a 043c 595b 133c ca8d 483c
000000c0: 676d 3f3c ccd7 7a3c add8 143c 9f65 023c
000000d0: d1e8 373c e2e0 0a3c 51f3 343c 7773 3f3c
000000e0: e120 3c3c 8389 393c 359c 223c 5934 123c
000000f0: a272 2e3c 6197 303c 9f64 053c 587f 333c
00000100: a710 163c 9a18 893c fe38 3e3c 9846 4b3c
00000110: bb2b 033c 2bdb 2d3c 4e2e 4b3c b987 2b3c
00000120: 938c 423c a365 803c 1ced 813c 7e2d 2e3c
00000130: fb61 123c 4224 563c 3edb 763c 0652 5e3c
00000140: 4bd5 6e3c c6a6 603c df92 893c a5ba 543c
00000150: bac9 723c aa02 5f3c 70c6 2e3c 25f7 4d3c
00000160: 2a36 5c3c 470c 563c e808 533c 8702 3f3c
00000170: b704 3e3c ca24 4c3c 9b34 803c 455b 323c
00000180: 1580 663c 77e5 6d3c 5472 513c f01b 323c
00000190: 7008 613c 4eb5 833c b906 503c 881f 353c
000001a0: 38e3 963c 11c2 3d3c 47ad 263c e356 2a3c
000001b0: a7be 773c 91e5 263c 212a 4b3c f0f5 723c
000001c0: 8e65 733c aef9 8d3c 86a8 493c a8dc 273c
000001d0: d377 3a3c 517d 5f3c c16c 223c 80cb 553c
000001e0: a358 6b3c 7492 533c ff4b 463c 02e8 483c
000001f0: 77a6 393c 8308 483c 29d8 643c c761 923c
0.0089154085 0.012426011 0.011119235 0.011104564 0.007965202 0.0078771785 0.010404531 0.006920218
0.009179043 0.010130616 0.008508 0.006139719 0.009011381 0.010051969 0.017291304 0.010558494
0.009478292 0.013176808 0.012615568 0.0072025103 0.009179224 0.0092544025 0.009881037 0.008223539
0.009509463 0.010417216 0.009755699 0.009018446 0.009260909 0.0076044356 0.011717495 0.0090863155
0.010976154 0.009881268 0.009362667 0.015383744 0.012842866 0.0116385855 0.0110404305 0.009525447
0.008377807 0.008103245 0.007348218 0.008475203 0.012325035 0.008062978 0.008993947 0.012240836
0.011683798 0.015310239 0.009084863 0.007958799 0.011224941 0.008476468 0.011044339 0.011685244
0.011482448 0.011324289 0.009924938 0.0089236135 0.010647448 0.010778279 0.008141666 0.010955654
0.009159244 0.016735364 0.011610268 0.012406968 0.008006032 0.010611336 0.012401177 0.0104693705
0.011874336 0.015673464 0.015860133 0.010630963 0.008934493 0.013070168 0.01506692 0.013569361
0.01457722 0.013711637 0.016793666 0.012983953 0.014818603 0.013611475 0.010667428 0.012571131
0.013440648 0.013064451 0.012880541 0.011658317 0.011597804 0.012459943 0.015650084 0.010886018
0.014068623 0.014520041 0.012783606 0.010870919 0.013734922 0.016077664 0.012696915 0.011054881
0.018418893 0.011581914 0.0101731485 0.010396692 0.015121139 0.010186569 0.012400181 0.014829144
0.0148557555 0.01733097 0.0123082455 0.01024548 0.011381107 0.013640718 0.009913624 0.013049006
0.014364394 0.012913335 0.01210308 0.012262346 0.011331192 0.012209061 0.013967552 0.01786889

convs.0.bn2.weight f4 [64]
00000000: de6e 803f 271c 7c3f 3ff6 7f3f 5bee 7e3f
00000010: bd6f 7c3f d3c8 793f 34e2 7d3f 5c6c 763f
00000020: cb00 833f ba49 843f a69a 7f3f fade 7f3f
00000030: 3572 7a3f 045e 7c3f c64d 863f 1590 7f3f
00000040: 0975 7c3f f02a 833f 1354 833f 5f4b 7e3f
00000050: 5b4f 7b3f 1980 813f f713 783f 2943 7f3f
00000060: 342c 7a3f f9b2 7f3f 617d 7d3f 3f85 7f3f
00000070: 65e0 823f 4eb3 803f 3b6c 833f bc11 7d3f
00000080: fc20 813f 28b7 833f fbe4 823f bc6b 7e3f
00000090: 40f0 803f e0ca 7d3f 6e85 813f 54fd 7c3f
000000a0: d500 813f 42e5 7d3f 2462 783f e224 7e3f
000000b0: 493d 803f 8c3c 823f 4bf4 7d3f 3521 833f
000000c0: 9128 833f 1276 823f de57 813f 518f 813f
000000d0: c0cf 803f 2080 7e3f 7f59 833f a8e5 7b3f
000000e0: 00a3 7c3f 2abe 813f 7e97 813f 8e67 843f
000000f0: 19d1 7f3f 78ac 7c3f b7e6 803f c781 7f3f
1.0033834 0.9848046 0.99985117 0.9958245 0.98608 0.9757206 0.99173284 0.96259093
1.0234617 1.0335 0.9984535 0.9994961 0.97830516 0.98580956 1.0492485 0.99829227
0.9861608 1.0247478 1.0260032 0.9933376 0.9816796 1.0117217 0.96905464 0.99711853
0.977237 0.99882466 0.9901944 0.9981269 1.022473 1.005472 1.0267404 0.98855186
1.0088191 1.029027 1.0226129 0.9938314 1.0073318 0.9913769 1.0118845 0.9882405
1.0078379 0.99177945 0.9702475 0.9927503 1.0018703 1.0174727 0.99200886 1.0244509
1.0246755 1.0192282 1.010494 1.0121862 1.00634 0.99414253 1.0261687 0.983973
0.9868622 1.0136158 1.0124357 1.0344102 0.9992843 0.98700666 1.0070409 0.998074

convs.0.bn2.bias f4 [64]
00000000: 8d13 99bc 84a7 5dbc 495f 81bc db6a 4dbc
00000010: 5f14 2abc 02f5 4ebc faf5 1cbc 34c4 90bc
00000020: 397f 53bb 6663 443a 42df 8dbc 5664 90bb
00000030: cd60 8cbc 4494 76bc 8aa2 e2bb 628a 5cbc
00000040: 295c 67bc c055 87bc 9f44 92bc da99 3cbc
00000050: de96 82bc 6b55 86bc 5365 90bc 5735 4bbc
00000060: f6b5 48bc d4a9 8dbc 410c 4ebc b7b8 72bc
00000070: d72d 27bc 354d 90bc e020 79bc 0d6c 31bc
00000080: a402 90bc d33e 8cbc 1bbb 33bc 4bd9 5abc
00000090: cd65 c6bc 3138 97bc 5b32 37bc f15a 93bc
000000a0: ad6f 39bc 65d1 9cbc d6b0 46bc bb84 80bc
000000b0: 3815 75bb 7faa 51bc 6975 f5bb 7002 88bc
000000c0: 608a 44bc 435f 8cbc e119 16bc c449 71bc
000000d0: 806a 28bc 5169 c4bb 9e8c 8dbc 9fda 94bc
000000e0: 90e5 a6bc 5598 95bb 4ef1 e2bb d213 d6bb
000000f0: dafb 3dbc 176c ecbb 839a 3ebc eb85 b1bc
-0.01868608 -0.013528708 -0.015792506 -0.012537683 -0.010380833 -0.012631657 -0.00958013 -0.017671682
-0.0032271876 0.0007491618 -0.017318372 -0.004406492 -0.017136002 -0.015049998 -0.006916349 -0.013460727
-0.014121094 -0.016520381 -0.017854987 -0.01151129 -0.01594108 -0.016398152 -0.01762644 -0.012402854
-0.012250414 -0.017292894 -0.012576164 -0.014814547 -0.0102038 -0.01761494 -0.015205592 -0.010828984
-0.017579384 -0.0171198 -0.010969902 -0.013357471 -0.024218464 -0.018459411 -0.011181439 -0.0179877
-0.0113181295 -0.019142816 -0.012127122 -0.01568829 -0.003739668 -0.012796997 -0.007490803 -0.016602725
-0.011995882 -0.017135268 -0.009161443 -0.01472706 -0.010279298 -0.005994 -0.017278966 -0.018170653
-0.020373136 -0.0045652785 -0.0069257384 -0.0065331245 -0.011595691 -0.0072150338 -0.011633518 -0.021670302

convs.0.bn2.running_mean f4 [64]
00000000: c7dd a640 d1c1 b240 01ef a340 fc0b 9e40
00000010: b919 aa40 ec49 9040 a455 a640 8dfe a240
00000020: f5c3 9b40 c516 9f40 29a8 a740 9b36 9c40
00000030: 8fc6 a040 1686 a440 aacd a140 49e5 a140
00000040: 2bca a040 44e5 a840 833e a240 a054 a540
00000050: 1605 a240 b079 9d40 c4c2 a340 abd3 9840
00000060: 45b6 a940 8b6b a940 4d43 9f40 4dd7 9b40
00000070: c74c aa40 14df 9c40 d81f a240 18c2 a540
00000080: d351 9540 46e3 9c40 77f2 9a40 0936 9440
00000090: 2542 9c40 97e6 9f40 f177 9740 32c7 a740
000000a0: 5473 ae40 65c9 a040 6f1a a640 2338 a340
000000b0: cf2b a140 d1ab a040 9af3 9f40 a293 a440
000000c0: ffca a140 2f61 a840 204c 9440 bafc a540
000000d0: 8b9d aa40 d6b6 8d40 e481 9b40 7470 9e40
000000e0: 5845 aa40 38e3 9940 eb53 9940 757a a040
000000f0: 61d1 9b40 f6b7 a640 4d6a 9940 fd82 9e40
5.2145724 5.586159 5.1229253 4.938963 5.31564 4.5090237 5.197954 5.093573
4.8676705 4.9715295 5.2392774 4.8816657 5.024238 5.141368 5.0563555 5.059239
5.0246787 5.2779865 5.070131 5.16658 5.063121 4.9211044 5.117525 4.7758384
5.3034997 5.294378 4.9769654 4.870032 5.321872 4.902231 5.066387 5.179943
4.6662383 4.9027433 4.8420978 4.631596 4.8830743 4.996898 4.7333913 5.243066
5.451578 5.0245843 5.1907268 5.1006026 5.0365977 5.0209737 4.9984865 5.1430216
5.05603 5.261863 4.6342926 5.1871004 5.3317313 4.428569 4.859606 4.951227
5.320965 4.8089867 4.791494 5.0149484 4.869309 5.209956 4.794226 4.95349

convs.0.bn2.running_var f4 [64]
00000000: 353d 0c41 b80a 1541 e10f 0541 bbbb aa40
00000010: c12e f440 8014 7e40 fd06 2c41 11e7 0141
00000020: 5190 0c41 c156 c840 1ace 1941 852f d140
00000030: a667 0c41 d228 1b41 eebb 3741 8808 1941
00000040: efa6 f240 c973 3541 92cf e340 daa6 1a41
00000050: b39d e740 48b7 fd40 f388 2041 3fd7 c940
00000060: 4b90 3741 2a71 1d41 d7c1 fa40 dd3d aa40
00000070: fd1a 4a41 a2ff a640 86ad ee40 c9f5 3341
00000080: a6d1 d240 4956 2841 f272 0241 cdfb be40
00000090: 7e38 2d41 c61f 0241 4c8e b540 ab3f 1841
000000a0: f8b0 3741 2455 3441 4b04 2541 4fb9 ee40
000000b0: aa04 0341 a6b7 2641 67ba 1f41 ddb4 c340
000000c0: 4ea2 eb40 54fd 1d41 24df da40 f78e ee40
000000d0: b1ba 1941 59e6 7240 22f0 de40 cf6d e540
000000e0: e240 2241 2be7 e140 4146 b340 4b98 0541
000000f0: ab65 dd40 cfbe 1941 c2b4 d640 3aa9 d340
8.764943 9.315117 8.316377 5.3354163 7.6307073 3.9700012 10.751706 8.118913
8.7852335 6.26059 9.612818 6.5370507 8.775305 9.697466 11.483381 9.564583
7.5828776 11.340768 7.119088 9.665735 7.2380004 7.928623 10.033435 6.307525
11.472728 9.840128 7.836162 5.3200517 12.631589 5.218705 7.458682 11.247506
6.588092 10.521066 8.153063 5.9682374 10.826292 8.132757 5.67362 9.515544
11.480705 11.270786 10.313548 7.4601207 8.188639 10.419836 9.983008 6.115828
7.3635626 9.874348 6.839739 7.454952 9.608079 3.7953093 6.966813 7.1696544
10.140841 7.0594687 5.602326 8.349681 6.9186606 9.609084 6.709565 6.6144075

convs.1.fc_full.weight f4 [128, 169]
00000000: 900c 10bd 2755 15bc a805 993c 3fc6 803d
00000010: 39b3 7ebd dcbc a53d 51d6 4b3d f0f3 4dbc
00000020: aa01 823d 612c 21bb f0d1 a33b 1231 a13c
00000030: 966e f83c 19f0 f4bb 8a74 993c da01 c13c
00000040: b113 77bd 6c23 72bd 5d92 6f3c 7680 053e
00000050: 513f 2c3d 71f2 313c 8601 3dbd 3d54 823d
00000060: 9bc0 813d d2a2 05bd 11cc 323c b4bb 1f3c
00000070: ca9f 70bd 00c0 9abb b7d8 2d3c 7905 35bd
00000080: d1c7 b9bd 2972 e4bb 1281 32bc be70 933d
00000090: 35ee 903d 7b57 173d d5ad c0bb 8a95 b43c
000000a0: 40bc 72bd e2ac d93c 389d 833d 7199 933b
000000b0: 1a86 cf3c cae6 8fbd 720e b43c 42db 33bd
000000c0: 4d9b 473d 603d a53c 3b3b 6fbd 45fa 8dbd
000000d0: ea73 07bd 0e37 73bd f518 5b3d 6080 9e3d
000000e0: 2ae0 eebc 1ec1 36bd cf28 c93b f0f9 c2bc
000000f0: 4221 563d c4ac 5abd 446f a7bc 4779 7abc
00000100: 9fce 8d3d 3519 49bd 9c65 45bd de56 913c
00000110: 81a1 acbc 09ee 5b3c 0beb 6fbd f16b ceba
00000120: 9f7f fbbc 3571 88bd 2639 1a3d 3971 523d
00000130: e571 4bbd 88c1 5b3d d7cf e7bc 5bd1 59bd
00000140: c605 c2bc 045a 253b 2634 3abd 77fe 78bd
00000150: b63d 5d3d 6ccf 553d f72a 093d 4bf8 60bd
00000160: 84f6 93bd ac5f 053d c603 593d 687b 2f3d
00000170: 0b06 79bd b689 99bd 69cf 213d 6320 b2bd
00000180: 3ad2 813d 8041 513d c3af 463c 7f83 b5bc
00000190: 5b20 b0bc 607d 3d3d fea7 7f3c b0ec 5d3d
000001a0: 7bf3 083c 3259 f0bb 64b6 7abd d050 563d
000001b0: e223 1d3d 8129 94bd ee6b 323d 97f9 633d
000001c0: 56ce c03c 2eb2 ce3b 845f 1c3b 487d 973d
000001d0: 4d5d 2b3d 6f80 32bd 2eae 00bd d0a6 903b
000001e0: ba4b ae3d 0f0a 70bd a3e4 20bc 17df b3bd
000001f0: 4b42 5dbc f1e1 1a3d ebf2 9ebc f0c8 353d
00000200: d8f8 6d3c b0e7 e83b 19b7 4dbc b733 f4bc
00000210: a345 a43c 6bab a3bb fe7b 7f3d 9d02 cfbc
00000220: d2c9 9cbc ee53 4abc 0bee 75bd 1ab9 023d
00000230: e22d 38bd 1eb9 81bd 2153 5ebd 953e b93c
00000240: 3e12 32bd 81c4 c9bc b466 63bd 49c1 643d
00000250: e625 713d f848 fc3c c8ea 3e3d 5f4d 963c
00000260: d24a 52bd 2b17 3ebd 3e91 863d 4118 0fbc
00000270: 27db 35bd 661b 73bd f7cc 053d c324 79bd
00000280: ff7c 31bd 21c9 983b 5fc1 a33c 808d 223c
00000290: 05ca b23c 6282 c1bc 20d1 90bb 2f9a 16bd
000002a0: 8894 5dbd bff4 57bc 9496 103d 85e7 59bc
000002b0: a999 733d db74 e73c 3f3a 6abd f995 903c
000002c0: 0d78 cbbc d640 94bc 8519 28bd ddaa 3dbc
000002d0: 64c7 ddbc 3036 3a3d e829 443d b41e e5ba
000002e0: df14 f23b 1f3b 453d d188 adbd 3a88 80bd
000002f0: 18c4 05bc e7f7 76bc 04c3 92bd bab0 80bc
00000300: 0e0e a8bd 9a73 36bd 468b 9b3d a9d0 a63d
00000310: 2421 043d 2906 b7bc bd0a 9ebd 78fa 1fbc
00000320: 6033 9abd 3aed 83bd 0cf2 503d 96e4 243d
00000330: a723 5abd b2ac 65bd 48e0 8e3d 5ff7 1ebc
00000340: 7c4a 883d 5fe6 123c b34e 85bd d1f4 7bba
00000350: 11cd a8bd 615b 133d dbab 603d e437 d73b
00000360: 9f7e 00bd eec0 703d 39bf 0cbd 5782 753d
00000370: 699f 4d3b b58d 093c 4608 183b c0f2 973b
00000380: b9db 5fbb c692 353d 0b85 c83d 5b60 d0bc
00000390: fa13 2ebd 55cb fdbb 044b 80bd 0963 7f3c
000003a0: fe3b 3e3d 2c61 a93d db67 1e3d 9927 1fbd
000003b0: 2d33 b2bc ddea e7bc 0e36 edbc a740 243d
000003c0: b793 82bc fc5e 003d bf65 0ebd 16f5 ae3d
000003d0: c41d ef3c 6348 0f3d 1801 13bd 3927 6cbd
000003e0: eec5 2f3c 29db 81bd f810 1fbd 9306 aabc
000003f0: c3b2 9c3d f956 d93c 8932 8c3c a70d e93c
-0.03516823 -0.00911454 0.018679455 0.062878124 -0.06218264 0.08092663 0.049764935 -0.012570366
0.06347974 -0.0024593102 0.0049993917 0.019676719 0.030326169 -0.007474911 0.018732328 0.023560453
-0.060321514 -0.059115812 0.014622298 0.13037285 0.04205257 0.010861025 -0.04614403 0.063637234
0.06335565 -0.03262598 0.010912911 0.009749342 -0.058746137 -0.004722595 0.010610751 -0.044194672
-0.09071315 -0.0069716168 -0.010895031 0.07199238 0.070766844 0.036948662 -0.0058800974 0.022043962
-0.05926156 0.026571695 0.064264715 0.0045043756 0.0253325 -0.070264414 0.021979544 -0.043910272
0.04873209 0.020170867 -0.058406096 -0.06932501 -0.03306953 -0.059378676 0.053490598 0.07739329
-0.029159624 -0.044617765 0.006138898 -0.02380082 0.05227781 -0.05338742 -0.020438798 -0.015287704
0.069241755 -0.049096305 -0.048192605 0.017741617 -0.021073105 0.013423451 -0.058573764 -0.0015748722
-0.030700503 -0.066622175 0.037652157 0.05137751 -0.049669165 0.053651363 -0.028297348 -0.053178173
-0.023684394 0.0025230655 -0.04545989 -0.06078955 0.05401393 0.052199766 0.03348824 -0.05492429
-0.072247535 0.032561943 0.052982114 0.0428423 -0.06079678 -0.074969694 0.039504442 -0.086975835
0.06338926 0.051087856 0.012126866 -0.022157429 -0.021499803 0.046262145 0.015604017 0.0541808
0.0083588315 -0.0073348517 -0.061209098 0.052323163 0.0383643 -0.07234479 0.04355996 0.05565795
0.023535889 0.006307862 0.0023860643 0.073969424 0.041837025 -0.043579515 -0.03141611 0.004414417
0.085105374 -0.058603343 -0.009820136 -0.087827854 -0.013504575 0.03781313 -0.019402942 0.044381082
0.014524661 0.0071076974 -0.012555861 -0.029809816 0.020052737 -0.0049948 0.062374108 -0.0252698
-0.019139204 -0.012349112 -0.06004147 0.031914808 -0.044965632 -0.063341364 -0.054278497 0.02261285
-0.04347443 -0.024629833 -0.055517867 0.055848394 0.058874033 0.030796513 0.046610624 0.01834744
-0.051340885 -0.046408813 0.065706715 -0.00873381 -0.044398453 -0.0593523 0.032666173 -0.060826074
-0.043332096 0.0046626483 0.019989667 0.009921432 0.021824846 -0.023621742 -0.004419461 -0.036768135
-0.05409673 -0.013180911 0.035299852 -0.013299827 0.059472714 0.028253963 -0.057184454 0.017649638
-0.024837518 -0.018097322 -0.041039962 -0.0115763815 -0.027072616 0.045461833 0.047891527 -0.0017480464
0.007387742 0.048152085 -0.08473361 -0.06275983 -0.008164428 -0.015073753 -0.071661025 -0.01570927
-0.08205806 -0.04454384 0.07594924 0.081452675 0.032258168 -0.022341805 -0.07716892 -0.009764306
-0.0752933 -0.06441732 0.051012084 0.04025706 -0.053256657 -0.0560729 0.06976372 -0.009702533
0.06654832 0.008966058 -0.06509151 -0.00096113706 -0.08242238 0.035975818 0.054851394 0.006567942
-0.031370755 0.058777742 -0.03436205 0.059938755 0.0031375533 0.008395602 0.002319829 0.0046370924
-0.0034158065 0.044329427 0.09791001 -0.02543657 -0.04249952 -0.0077451863 -0.06264308 0.015587577
0.04644393 0.08270487 0.038673263 -0.038856123 -0.021752918 -0.028310234 -0.02895644 0.04010072
-0.015939577 0.031340584 -0.034765 0.0854284 0.029188998 0.034981143 -0.035889715 -0.057654593
0.010728342 -0.063406296 -0.038834542 -0.020755088 0.076512836 0.02653073 0.01711394 0.028448893

convs.1.fc_full.bias f4 [128]
00000000: e973 933d 952a 4f3d 887e 19bd 6b41 25bd
00000010: 0d1f 50bd b238 3d3d 5d24 4bbd 1fcb 98bd
00000020: c0fb 81bd 3b42 7f3d 18ef 3bbd fc5b 55ba
00000030: 648e 6f3c 1c51 a5bc e026 953c 86b9 4c3d
00000040: cf75 79bd 8aef 9dbc 7a41 4e3d 27ca 483d
00000050: 4a2c c33c 413c 0fbd 5a86 353c 4113 4a3d
00000060: 205b 54bd d670 4b3d 7e71 693d 3556 873d
00000070: 6ec4 8c3d ad90 8ebc 6a39 6fbb 5d4d 0b3d
00000080: 5f3e 88bb 9b42 ac3c 4571 593d 239c 2ebd
00000090: c84c 90bd a187 f83b 06c6 1dbd 21ec 903d
000000a0: 22b8 233c 7c00 3c3d 3a60 703d ed7a bc3b
000000b0: 4cb3 cf3c 8545 3a3d d5a8 493d 17ba 1bbd
000000c0: 4d5f 7ebd c7f5 06bd 6d57 853d de61 7d3d
000000d0: fc75 9bbc a5a9 69bd 6135 1e3d aaef de3c
000000e0: c146 3fbd cfb0 7fbd 4232 513c 5f17 1f3d
000000f0: dfae 8f3d 4a3b 5a3d c32a 943d ba9d b03c
00000100: 9d63 07bd 4890 8fbb 2377 8fbd d8d6 553d
00000110: 50a8 08bc d010 00bd 7b22 8a3d 9ed6 553d
00000120: 15bd 843d 7a31 97bd 04db b53c 96f2 64bd
00000130: 6c6d 853d 2a4f 8a3d c431 8d3d 6dfb 41bd
00000140: 06c9 9c38 80e0 9b3d a42a 7cbd c8da 83bd
00000150: 8daf 413d dc78 3d3c aad3 32bd 2ada 01bd
00000160: 294a 83bd e563 313d e07f 38bd 7b4a 283d
00000170: 7337 3f3d a102 753d 5b5f 9abc 9c5e aabc
00000180: e0ec 9a3d dcde cb3b bc38 f2b9 fe48 883d
00000190: babe 45bd a553 88bd 2a83 273c 45ef 873d
000001a0: cea4 00bd 0445 02bd 8d19 78bc 71a0 46bd
000001b0: ccdd 87bd 44ad 60bd bbed 763c 4080 063d
000001c0: c6f8 7cbc 53cc 5c3a 5bb6 843d 8525 38bd
000001d0: 3c05 50bd 0b18 113d e96e 88bd 561c 9cbb
000001e0: 6418 3cbd f128 823b 2888 483c 70e1 24bc
000001f0: e238 16bd 1098 9b3c cb7d 993a 327f 17bd
0.071998425 0.05057772 -0.037474185 -0.04034559 -0.050810862 0.046196647 -0.049595226 -0.07460617
-0.063468456 0.06231902 -0.045882314 -0.0008139012 0.014621351 -0.020180278 0.018207014 0.049981616
-0.060903367 -0.01927926 0.050355412 0.049020912 0.02382483 -0.034969572 0.011079395 0.04933477
-0.051844716 0.049668156 0.056993 0.066082396 0.068734035 -0.017402971 -0.0036502727 0.034009326
-0.004157826 0.021027854 0.053086538 -0.042629372 -0.07045895 0.0075845276 -0.038518928 0.07076288
0.009992631 0.0458989 0.05868552 0.0057519586 0.02535405 0.045476455 0.049233276 -0.038019266
-0.062102605 -0.032949235 0.06510816 0.06186091 -0.018977158 -0.05704655 0.038625125 0.02721389
-0.046698336 -0.062424477 0.01276833 0.038840648 0.07015776 0.0532792 0.07234719 0.021559585
-0.033053983 -0.0043812133 -0.070051454 0.052206844 -0.00834091 -0.031266034 0.06744858 0.052206628
0.06481377 -0.07382484 0.022199161 -0.05589541 0.06515011 0.067533806 0.06894258 -0.04735892
7.476103e-05 0.07611179 -0.061564103 -0.064382136 0.04728656 0.01156446 -0.04365889 -0.031702198
-0.06410629 0.043308157 -0.045043826 0.041086655 0.04668374 0.05981696 -0.018844297 -0.020797066
0.075647116 0.0062216353 -0.00046200107 0.06654547 -0.048277594 -0.06656579 0.010224143 0.06637434
-0.03140717 -0.0318041 -0.0151428105 -0.048492853 -0.06634101 -0.05485274 0.015071328 0.032837152
-0.015440172 0.00084227807 0.06480094 -0.044957656 -0.050786242 0.03542332 -0.066617794 -0.00476412
-0.0459217 0.0039721658 0.012239493 -0.010063514 -0.03667534 0.018993407 0.0011710463 -0.036986537

convs.1.bn1.weight f4 [128]
00000000: 54f0 803f c108 823f d931 803f d5a3 803f
00000010: 88dd 803f 336d 813f 5b91 803f 466b 803f
00000020: 6a18 803f 8977 813f 9ac2 823f a8db 803f
00000030: c24b 813f a80a 813f 04e9 853f 1dba 813f
00000040: c41e 803f d540 803f 75ae 803f f7c1 803f
00000050: 8c1c 833f b691 803f 3d21 823f f7dd 803f
00000060: fb76 813f c851 803f 39d0 803f 003c 853f
00000070: 730f 813f b7eb 843f bd35 823f f5c1 833f
00000080: 2cd9 803f 61d3 803f 12b0 823f 7d3c 823f
00000090: 95a7 803f 217d 803f dfc7 803f 2840 803f
000000a0: c6ea 803f 87ca 803f 7d2e 803f 447d 813f
000000b0: 1669 803f e5e9 813f a39d 803f a343 813f
000000c0: 63a0 813f 81be 803f bbae 803f 6624 853f
000000d0: 758d 803f 0bd8 803f 3bc3 823f 40c7 813f
000000e0: 17a9 833f d3a9 803f ee61 813f 014b 803f
000000f0: 435f 803f 234d 813f 8f09 803f 9cdf 833f
00000100: 575c 803f 6e39 813f 9041 803f c830 803f
00000110: 31d7 803f e898 803f f28d 803f 698b 803f
00000120: 251d 813f 7aa5 813f 95e0 833f 60fe 803f
00000130: 6015 803f 09b0 803f 7af5 823f d724 803f
00000140: 4dbf 813f 91b4 823f 502a 823f 9b76 803f
00000150: 9513 823f bb8f 813f 1c34 823f d1b8 803f
00000160: 6bff 7e3f 3866 823f 5383 803f a062 823f
00000170: 39c1 813f 4da3 813f e91e 813f 44f2 803f
00000180: 2dfa 813f f676 803f fac8 813f de4c 803f
00000190: 988f 803f ead2 7f3f 64b4 803f 0a97 803f
000001a0: 19f0 803f 782c 803f dec3 803f a0ff 803f
000001b0: 14dc 803f a577 823f d3b0 803f 304c 803f
000001c0: 2174 813f dbe9 803f 9900 813f 34ec 823f
000001d0: c073 803f 2d72 813f 8e95 813f 17d2 803f
000001e0: 3bb0 803f 7772 803f b018 803f 47d5 813f
000001f0: 576f 803f 838b 803f 59a2 803f 5f16 843f
1.0073342 1.0158921 1.0015212 1.0049998 1.0067606 1.011145 1.0044359 1.0032737
1.000745 1.0114604 1.0215638 1.0067034 1.0101244 1.0081377 1.0461736 1.0134922
1.0009389 1.0019785 1.005324 1.0059193 1.0243087 1.0044467 1.0166394 1.0067738
1.0114435 1.0024958 1.0063545 1.0408936 1.008284 1.0384434 1.017265 1.0293566
1.0066276 1.0064508 1.0209982 1.017471 1.0051142 1.0038186 1.0060996 1.0019579
1.0071647 1.0061806 1.0014187 1.0116353 1.003207 1.0149504 1.0048107 1.0098766
1.0127071 1.0058137 1.0053324 1.0401733 1.0043169 1.0065931 1.021583 1.0138931
1.0285977 1.0051826 1.0108011 1.0022889 1.0029072 1.0101665 1.0002917 1.0302615
1.002818 1.0095651 1.0020008 1.0014887 1.0065671 1.0046663 1.0043318 1.0042545
1.0087019 1.0128624 1.0302912 1.0077629 1.0006523 1.0053722 1.0231164 1.0011243
1.0136505 1.0211354 1.0169163 1.0036196 1.0162226 1.0121988 1.0172153 1.0056401
0.99608487 1.0187445 1.0040077 1.0186348 1.0137092 1.012796 1.0087558 1.0073934
1.0154473 1.0036304 1.0139458 1.0023458 1.0043821 0.99931204 1.0055051 1.0046093
1.0073272 1.0013571 1.0059774 1.007801 1.0067163 1.0192763 1.0053962 1.002325
1.0113565 1.0071367 1.0078307 1.0228333 1.0035324 1.0112969 1.0123765 1.0064114
1.0053781 1.0034932 1.0007534 1.0143212 1.0033978 1.0042576 1.0049545 1.0319327
